models/generator_final.pth (torch, 25781 bytes, 5 tensors)

lstm.weight_ih_l0 f4 [128, 10]
0.33353248 -0.3632318 -0.07491276 -0.22395009 0.24507396 0.015089312 -0.3077107 0.15108883
0.25206375 -0.15077855 0.0017465609 -0.10383394 -0.018792361 -0.0030759743 0.16864462 -0.07830795
0.26050025 -0.27584302 -0.052820023 -0.04242506 0.18569529 -0.12444404 0.10613194 0.036554687
0.23082031 -0.14845219 -0.009193362 -0.24235128 0.050897498 -0.3351855 0.084690705 -0.13759814
0.23100956 0.18956064 0.2926249 0.08007768 -0.32080266 -0.13805212 0.10772606 -0.056181006
0.0939897 -0.073219076 0.081290826 0.2278666 -0.014603923 0.18631689 -0.038309935 -0.0159848
-0.020532308 -0.13677256 -0.1345119 -0.024859414 0.3001014 -0.09254008 0.5491271 0.018422952
0.026574265 -0.24051374 0.07392633 -0.4590005 0.119294636 -0.07082033 0.10278358 -0.013890924
0.08041907 0.20238623 0.10417758 -0.24589811 0.044295717 -0.1378569 0.16008379 -0.20115773
0.094900995 0.07494535 0.043361966 -0.009102242 0.13956666 -0.17671941 -0.13590296 -0.21253352
0.13568592 -0.29414138 -0.048720933 0.06824864 0.105971314 0.10362596 0.23410808 -0.15388474
0.054214187 -0.16930734 0.27619764 -0.086277455 0.058767244 0.03017493 0.1692122 0.07746635
0.004890016 -0.0971141 0.21942589 -0.22524521 -0.2147975 -0.18053332 -0.010813566 -0.09108228
0.2919035 0.10358831 -0.114249036 -0.1672597 0.07960452 -0.21989763 0.0058342195 -0.3508535
-0.02581652 0.122882895 0.10753728 -0.08785982 -0.27464187 -0.20410657 -0.07451751 -0.047081515
-0.14689343 -0.17618054 -0.11375004 0.09011353 -0.12458104 -0.017740201 0.022977667 -0.04511733
0.085814916 -0.11205025 0.15604165 -0.07932977 0.09254133 0.18722767 0.15550014 0.17260118
-0.24459909 -0.21941127 -0.0033306747 -0.32653433 0.022836301 0.017345725 0.051873423 0.1543374
0.22803487 0.08575917 -0.1090983 -0.013173194 0.112059325 -0.39069444 0.20877866 0.0059721665
-0.0062209186 0.13855478 0.4994115 0.08044054 -0.19050093 -0.26325515 0.009940629 -0.10968108
-0.059877962 -0.1794696 0.15014762 -0.053655703 0.2227083 0.06904834 -0.023468323 -0.23479117
0.18453169 -0.37215257 0.07066844 -0.17569934 0.12241032 0.019065842 0.28594962 0.21952997
-0.105857834 -0.17549652 0.011646538 -0.3447067 0.17446913 -0.05136197 -0.025549583 0.108013615
0.5578909 0.08312925 -0.37961236 -0.241499 0.07015447 -0.32883072 -0.035382975 -0.040800128
-0.005207539 0.18372692 -0.07496903 0.14052407 0.12565249 -0.19502376 0.08566525 -0.1336266
-0.1770447 -0.0420041 0.078519344 0.23646355 0.1874528 0.17539483 -0.3223245 0.06900875
-0.06563288 -0.40009767 0.048414912 -0.06341146 -0.100867264 0.17667578 0.02475779 0.16828927
-0.11237751 -0.16970286 0.00951548 -0.25598344 -0.005228011 0.04575851 0.053662717 0.09410888
-0.094262764 -0.12708122 0.17482099 0.113275185 -0.16897216 -0.15702361 0.24114421 -0.019697778
0.15858345 0.11772939 -0.051334172 -0.019088501 0.25532493 -0.20652565 0.29267794 -0.17120226
0.09857611 -0.24382369 -0.025966154 -0.025307273 -0.0066274614 0.080632634 0.028782954 -0.25614518
0.05354996 -0.28878903 0.34161168 -0.09127989 0.13997242 -0.0065995743 0.15495412 0.0010676507
00000000: c5c4 aa3e 85f9 b9be dc6b 99bd 2c53 65be
00000010: abf4 7a3e 2939 773c 428c 9dbe 08b7 1a3e
00000020: 800e 813e b165 1abe dcec e43a e4a6 d4bd
00000030: 70f2 99bc 4996 49bb 2db1 2c3e eb5f a0bd
00000040: 4a60 853e 4c3b 8dbe cf59 58bd e6c5 2dbd
00000050: e826 3e3e 84dc febd b45b d93d 5eba 153d
00000060: 295c 6c3e da03 18be c19f 16bc ef2a 78be
00000070: e579 503d 6f9d abbe 5272 ad3d 87e6 0cbe
00000080: c58d 6c3e 2f1c 423e eed2 953e c4ff a33d
00000090: 3f40 a4be 895d 0dbe 7b9f dc3d 0e1e 66bd
000000a0: ac7d c03d e2f3 95bd ce7b a63d dd55 693e
000000b0: 4b45 6fbc dbc9 3e3e e1ea 1cbd 8ef2 82bc
000000c0: 5f33 a8bc 1b0e 0cbe 7dbd 09be f8a5 cbbc
000000d0: e4a6 993e a785 bdbd 9893 0c3f bbeb 963c
000000e0: 46b2 d93c 3c49 76be b066 973d 1d02 ebbe
000000f0: bf50 f43d 400a 91bd 3380 d23d c296 63bc
00000100: c1b2 a43d 563e 4f3e 0e5b d53d b7cc 7bbe
00000110: 6d6f 353d 5c2a 0dbe 01ed 233e 4bfc 4dbe
00000120: 745b c23d f37c 993d 519c 313d 9221 15bc
00000130: 90ea 0e3e eff5 34be 252a 0bbe 63a2 59be
00000140: 40f1 0a3e b399 96be 9a8f 47bd f1c5 8b3d
00000150: 7d07 d93d d939 d43d 07ba 6f3e f693 1dbe
00000160: b20f 5e3d e75e 2dbe c769 8d3e 3cb2 b0bd
00000170: ecb5 703d 6a31 f73c f745 2d3e ada6 9e3d
00000180: 6d3c a03b c2e3 c6bd 2eb1 603e aea6 66be
00000190: e0f3 5bbe badd 38be 622b 31bc 5989 babd
000001a0: 6074 953e 1c26 d43d 66fb e9bd 2046 2bbe
000001b0: b207 a33d d82c 61be fb2c bf3b 12a3 b3be
000001c0: 2b7d d3bc 07aa fb3d 813c dc3d d9ef b3bd
000001d0: dc9d 8cbe 5001 51be a39c 98bd 8cd8 40bd
000001e0: 3b6b 16be ac68 34be c8f5 e8bd 718d b83d
000001f0: 5824 ffbd e653 91bc a93b bc3c f3cc 38bd
00000200: bbbf af3d 9a7a e5bd 62c9 1f3e a577 a2bd
00000210: 4f86 bd3d 9cb8 3f3e 6e3b 1f3e 5dbe 303e
00000220: 2f78 7abe 59ad 60be 7347 5abb 822f a7be
00000230: 3213 bb3c 9f18 8e3c 3a79 543d a00a 1e3e
00000240: f981 693e 81a2 af3d ee6e dfbd 61d4 57bc
00000250: 5c7f e53d 1a09 c8be 13ca 553e 2ab2 c33b
00000260: d9d8 cbbb 4ee1 0d3e ddb2 ff3e 03be a43d
00000270: ad12 43be 61c9 86be 05de 223c 79a0 e0bd
00000280: 9842 75bd e1c6 37be 4cc0 193e 15c6 5bbd
00000290: a50d 643e 3769 8d3d a440 c0bc 196d 70be
000002a0: e0f5 3c3e c88a bebe 9dba 903d 87ea 33be
000002b0: 43b2 fa3d f82f 9c3c fd67 923e 77cc 603e
000002c0: fecb d8bd 5cb5 33be 1fd1 3e3c 667d b0be
000002d0: 09a8 323e ee60 52bd 5c4d d1bc 3e36 dd3d
000002e0: f0d1 0e3f ab3f aa3d 8d5c c2be 844b 77be
000002f0: 26ad 8f3d 805c a8be bded 10bd 091e 27bd
00000300: 01a4 aabb e922 3c3e 5d89 99bd 8be5 0f3e
00000310: 0cab 003e 4fb4 47be 4371 af3d 69d5 08be
00000320: 354b 35be 7e0c 2cbd c0ce a03d 8023 723e
00000330: a0f3 3f3e b49a 333e b807 a5be 7654 8d3d
00000340: 886a 86bd 9ad9 ccbe b74e 463d dedd 81bd
00000350: 7f93 cebd 7fea 343e d9d0 ca3c 0654 2c3e
00000360: 2e26 e6bd 96c6 2dbe d1e6 1b3c 4310 83be
00000370: bc4f abbb 466d 3b3d 70cd 5b3d 28bc c03d
00000380: d60c c1bd 9421 02be 4604 333e d2fc e73d
00000390: 0a07 2dbe ccca 20be 82ee 763e 3c5d a1bc
000003a0: b363 223e 1b1c f13d c843 52bd 7d5f 9cbc
000003b0: f3b9 823e 767b 53be e2d9 953e a54f 2fbe
000003c0: 46e2 c93d ebac 79be f9b6 d4bc 3351 cfbc
000003d0: 2d2b d9bb b922 a53d 3bca eb3c 7625 83be
000003e0: 3457 5b3d 28dc 93be bae7 ae3e f3f0 babd
000003f0: ee54 0f3e 3e41 d8bb 4bac 1e3e 6af0 8b3a

lstm.weight_hh_l0 f4 [128, 32]
-0.09188989 -0.33076698 0.22090577 0.098309405 0.084871985 -0.3282457 -0.0847805 0.026590232
-0.033264365 -0.050456535 -0.0999496 -0.12509862 0.08166098 0.21464853 -0.4616702 0.29902524
-0.04339495 0.060491245 0.10181357 -0.048792124 0.077148475 0.01617503 0.21507525 -0.02531152
0.11884656 0.039831948 -0.03514818 0.035200827 -0.154951 -0.025803052 -0.1624056 0.19407704
-0.12671731 0.49065349 -0.15423056 -0.22447258 0.16336374 -0.15634285 0.28449684 -0.054690253
0.31563082 0.18648423 -0.16231298 0.088218 -0.38566935 0.052226372 0.20099504 0.15386966
-0.49622852 0.16309255 -0.07037253 -0.16742964 -0.10523568 -0.1340403 -0.36947078 0.25038332
-0.35614568 0.27622277 0.19900073 0.5924049 0.23288223 -0.1239359 0.50814027 0.24659273
-0.025196463 0.39694142 -0.2932169 -0.15890098 0.24439493 -0.016085409 0.23497532 0.10484269
0.6015615 0.24284065 -0.30726463 0.21434325 -0.3160252 -0.04729164 -0.013830192 -0.24502584
-0.3817257 0.10271806 -0.18330605 -0.42110762 0.16266021 -0.35112202 -0.37343094 0.2630972
-0.4000804 0.090949096 0.1567882 0.52565455 0.5719412 -0.29361296 0.49964115 0.07911303
0.27112624 -0.28561887 0.19819222 0.0699484 -0.3498339 -0.12109109 -0.025946353 0.24218652
-0.37474036 -0.34079927 0.16780873 -0.193425 0.25584915 -0.22565061 -0.22361794 0.09037322
0.27961951 -0.42425203 -0.16074717 0.3916512 0.038278215 0.12203864 0.31489643 -0.27013627
0.3714523 -0.26819348 -0.10676476 -0.14751866 -0.337049 0.3316958 -0.15146412 -0.27022785
-0.039285973 0.17753479 -0.14871101 -0.031395458 0.29663903 -0.014269258 0.15540212 -0.26599708
0.2002321 0.22012609 -0.34990293 -0.050209522 -0.47393462 0.1243846 -0.124592386 0.027628222
-0.24807239 0.05967961 0.2723001 -0.24030223 0.1332255 -0.28847212 -0.012456048 0.14986493
-0.41612154 0.10192136 0.11888283 0.16431502 0.35744444 -0.2002799 0.2323673 -0.0028012886
-0.16633846 0.38987598 -0.3920767 -0.29505712 0.26516753 -0.24965781 0.01571332 -0.21363223
0.36247885 0.03411834 -0.020934518 0.00038196173 -0.3967535 0.045135893 0.043627013 0.18449466
-0.39248285 -0.06304408 0.33630913 -0.0072539547 0.2428202 -0.35387906 0.06419839 0.019871285
-0.13925868 0.25663525 0.2019132 0.25916603 -0.002338549 -0.35413054 0.37304947 0.13911638
0.075683706 0.2892526 -0.39883775 -0.116003916 0.25824854 -0.10615767 0.042857166 -0.43621466
0.21744922 0.1965584 -0.3686664 0.09022181 -0.16021922 0.2204469 -0.32052413 0.26592165
-0.04753848 0.15225577 0.30662614 -0.3702383 0.32288185 -0.31690747 -0.17128317 0.22535019
-0.3299084 0.120311216 0.49145374 0.3677626 0.46383244 -0.55147415 0.42830724 0.121476926
0.17551638 0.2999401 -0.18840672 -0.054228462 0.42986974 -0.22215776 0.22144265 -0.07233273
0.28697613 0.31499025 -0.22972097 0.04904476 -0.45374596 -0.10737142 -0.1853767 0.24894224
-0.30017096 0.12020368 0.05499666 -0.22847594 0.0012570844 -0.19047417 -0.17148194 0.3285171
-0.41120163 0.31264263 0.1837716 0.46872863 0.45080447 -0.23106343 0.46484524 0.065491304
00000000: c430 bcbd 4a5a a9be 1f35 623e 7156 c93d
00000010: 5dd1 ad3d d20f a8be 66a1 adbd c2d3 d93c
00000020: 3740 08bd 83ab 4ebd 60b2 ccbd da19 00be
00000030: df3d a73d d3cc 5b3e 0960 ecbe d619 993e
00000040: e7be 31bd abc5 773d a283 d03d 40da 47bd
00000050: 0500 9e3d 7f81 843c b03c 5c3e 1b5a cfbc
00000060: d365 f33d d326 233d 8af7 0fbd be2e 103d
00000070: 7aab 1ebe ec60 d3bc a74d 26be 22bc 463e
00000080: 2fc2 01be ef36 fb3e 9eee 1dbe 24dc 65be
00000090: d348 273e 5718 20be 92a9 913e e302 60bd
000000a0: 5d9a a13e b9f5 3e3e 6035 26be a4ab b43d
000000b0: 7476 c5be 52eb 553d a5d1 4d3e 0290 1d3e
000000c0: aa11 febe bc01 273e 791f 90bd ad72 2bbe
000000d0: ce85 d7bd dc41 09be 462b bdbe 3e32 803e
000000e0: ba58 b6be 126d 8d3e d9c6 4b3e d9a7 173f
000000f0: ae78 6e3e 1bd2 fdbd 7b15 023f ce82 7c3e
00000100: d068 cebc e83b cb3e 8720 96be f0b6 22be
00000110: aa42 7a3e 8cc5 83bc 5f9d 703e c4b7 d63d
00000120: efff 193f 38ab 783e ca51 9dbe cc7c 5b3e
00000130: 0ece a1be e1b4 41bd 0898 62bc 0ee8 7abe
00000140: 8d71 c3be d95d d23d 95b4 3bbe 6b9b d7be
00000150: 6690 263e 44c6 b3be 5732 bfbe adb4 863e
00000160: 57d7 ccbe 8543 ba3d 168d 203e 4c91 063f
00000170: bd6a 123f 7054 96be f7d0 ff3e 0306 a23d
00000180: 0fd1 8a3e a33c 92be e7f2 4a3e 1b41 8f3d
00000190: 6e1d b3be 9bfe f7bd 728d d4bc beff 773e
000001a0: f8dd bfbe 3e7d aebe 0dd6 2b3e 3411 46be
000001b0: a9fe 823e f410 67be 1afc 64be 9815 b93d
000001c0: 4a2a 8f3e 9037 d9be e89a 24be 8286 c83e
000001d0: 9ec9 1c3d 65ef f93d 1b3a a13e 4d4f 8abe
000001e0: ff2e be3e a850 89be 7ca7 dabd 220f 17be
000001f0: b091 acbe 08d4 a93e 6919 1bbe 4e5b 8abe
00000200: 54ea 20bd aecb 353e b347 18be 8698 00bd
00000210: 12e1 973e 9bc9 69bc bc21 1f3e c530 88be
00000220: a509 4d3e bc68 613e 7a26 b3be 80a8 4dbd
00000230: 8fa7 f2be 5abd fe3d 4b2a ffbd 9554 e23c
00000240: b006 7ebe 9b72 743d eb6a 8b3e ca11 76be
00000250: 446c 083e 9eb2 93be 7414 4cbc 3176 193e
00000260: e20d d5be 25bc d03d d778 f33d 3242 283e
00000270: f502 b73e 2d16 4dbe b2f1 6d3e d395 37bb
00000280: a154 2abe d39d c73e 47be c8be ba11 97be
00000290: 0ac4 873e 4ca6 7fbe 38b9 803c 68c2 5abe
000002a0: d496 b93e acbf 0b3d de7e abbc 0942 c839
000002b0: 4623 cbbe 6ae0 383d 3db2 323d 2bec 3c3e
000002c0: 83f3 c8be 411d 81bd b630 ac3e 95b2 edbb
000002d0: dca5 783e a32f b5be 727a 833d 1bc9 a23c
000002e0: d499 0ebe b265 833e 55c2 4e3e 69b1 843e
000002f0: 5742 19bb 9950 b5be 5700 bf3e 8674 0e3e
00000300: 0f00 9b3d eb18 943e 7634 ccbe 7693 edbd
00000310: 2739 843e 3169 d9bd ff8a 2f3d 8757 dfbe
00000320: 02ab 5e3e 9b46 493e d8c1 bcbe 36c6 b83d
00000330: 8210 24be d5bc 613e bd1b a4be e226 883e
00000340: b6b7 42bd f0e8 1b3e 1afe 9c3e e08f bdbe
00000350: c550 a53e b241 a2be db64 2fbe 33c2 663e
00000360: c1e9 a8be ba65 f63d d39f fb3e 614b bc3e
00000370: 727b ed3e 692d 0dbf 164b db3e e5c8 f83d
00000380: 91ba 333e c091 993e b1ed 40be aa1e 5ebd
00000390: e317 dc3e 537d 63be ddc1 623e 2f23 94bd
000003a0: 89ee 923e 6746 a13e f93b 6bbe 29e3 483d
000003b0: 6451 e8be 8ce5 dbbd 64d3 3dbe b7ea 7e3e
000003c0: 02b0 99be 592d f63d 2e44 613d 99f5 69be
000003d0: c1c4 a43a a90b 43be f698 2fbe 6533 a83e
000003e0: 0589 d2be b212 a03e 9f2e 3c3e 33fd ef3e
000003f0: d8cf e63e e49b 6cbe 3200 ee3e 4e20 863d

lstm.bias_ih_l0 f4 [128]
0.66063213 0.5474878 0.55000913 0.6486516 0.63408506 0.3540205 0.5332392 0.3334709
0.5802412 0.52954507 0.4720938 0.6009801 0.6252781 0.6359537 0.5605478 0.7649181
0.6370468 0.5288752 0.84724534 0.65333754 0.624971 0.658117 0.43502164 0.31335473
0.51933026 0.37971538 0.32277358 0.60006285 0.5524245 0.43605608 0.6045651 0.46373907
0.36085698 0.28354976 0.34561718 0.22739813 0.38903567 0.055747885 0.54026604 0.1833868
0.32678917 0.16156504 0.29619437 0.3340995 0.43652946 0.061081532 0.12357001 0.2854581
0.16885558 -0.054098714 0.38689053 0.3559933 0.17776932 0.14724569 0.7168725 0.31197894
0.47650352 0.13029341 0.12175184 0.20278402 0.54422295 0.14763086 0.31066373 -0.053255804
-0.24141154 -0.14588688 -0.06992156 -0.3088321 0.033488527 -0.52842903 -0.026464278 -0.19674811
0.020691793 0.16677268 0.05505107 0.35785255 0.09382548 0.4694895 -0.35904333 0.5429761
0.011979777 0.29900935 0.5759743 0.050320957 0.518632 0.07745596 -0.07573308 0.2167454
0.118268915 0.2935166 0.3713976 -0.1871599 -0.059620604 -0.21794567 0.059660535 0.4385806
0.6874524 0.6618692 0.5446673 0.3574254 0.6607253 0.6118418 0.5373624 0.41596115
0.65895617 0.5586803 0.5242691 0.45924297 0.6713192 0.6331631 0.42880136 0.42646876
0.49913016 0.45598254 0.7154637 0.6414784 0.42594817 0.46331194 0.46954894 0.3074198
0.6852678 0.4054968 0.45407948 0.45997575 0.5862019 0.5678535 0.5656181 0.61523986
00000000: 301f 293f 2928 0c3f 66cd 0c3f 080e 263f
00000010: 6653 223f 2d42 b53e 5d82 083f b3bc aa3e
00000020: b08a 143f 4490 073f 47b6 f13e d5d9 193f
00000030: 3a12 203f ddcd 223f 1080 0f3f acd1 433f
00000040: 8015 233f 5d64 073f 12e5 583f 2141 273f
00000050: 19fe 1f3f 5b7a 283f 28bb de3e 0870 a03e
00000060: d4f2 043f 0e6a c23e 9442 a53e b89d 193f
00000070: b16b 0d3f be42 df3e c7c4 1a3f 356f ed3e
00000080: 3fc2 b83e 6f2d 913e bcf4 b03e 0edb 683e
00000090: af2f c73e e557 643d e04e 0a3f c0c9 3b3e
000000a0: e950 a73e 4e71 253e caa6 973e 170f ab3e
000000b0: ca80 df3e a130 7a3d 4612 fd3d 9027 923e
000000c0: 7ae8 2c3e 9d96 5dbd 8416 c63e c144 b63e
000000d0: 2909 363e 93c7 163e f584 373f b4bb 9f3e
000000e0: 45f8 f33e a36b 053e 0759 f93d 9da6 4f3e
000000f0: 3252 0b3f 8b2c 173e 510f 9f3e c222 5abd
00000100: 9634 77be 5f63 15be 0933 8fbd 3e1f 9ebe
00000110: 442b 093d 2047 07bf 9dcb d8bc 5678 49be
00000120: d681 a93c 75c6 2a3e 3b7d 613d 7338 b73e
00000130: 9327 c03d ee60 f03e 87d4 b7be 7b00 0b3f
00000140: d446 443c c117 993e 0d73 133f 591d 4e3d
00000150: 11c5 043f 3ba1 9e3d f219 9bbd 82f2 5d3e
00000160: f936 f23d cf47 963e d427 be3e d8a6 3fbe
00000170: bc34 74bd 262d 5fbe 9b5e 743d a38d e03e
00000180: e1fc 2f3f 4370 293f 516f 0b3f 7600 b73e
00000190: 4b25 293f aaa1 1c3f 9590 093f dcf8 d43e
000001a0: 5ab1 283f ac05 0f3f 8036 063f e521 eb3e
000001b0: 93db 2b3f fa16 223f da8b db3e 1d5a da3e
000001c0: fd8d ff3e 8b76 e93e a128 373f ee37 243f
000001d0: e115 da3e 3937 ed3e b868 f03e 2166 9d3e
000001e0: b66d 2f3f 479d cf3e 1b7d e83e f181 eb3e
000001f0: 5411 163f d95e 113f 59cc 103f 5c80 1d3f

lstm.bias_hh_l0 f4 [128]
0.71488297 0.5194075 0.45220166 0.6425569 0.7450307 0.609801 0.5829591 0.38987568
0.6131918 0.43781707 0.5556303 0.42252052 0.4884215 0.49216616 0.33999568 0.75709856
0.7245127 0.59493154 0.96458256 0.5124675 0.480515 0.5973169 0.6084899 0.34675264
0.65583426 0.34149224 0.44094166 0.68524706 0.7021431 0.6299195 0.63598865 0.6071647
0.25892982 0.14761071 0.19164385 0.38777232 0.1988322 0.15492828 0.29106662 -0.08366058
0.30529547 0.28943428 0.309734 0.26684347 0.34248713 0.14115734 -0.007242297 0.34176213
0.09188201 0.10577104 0.27914846 0.3841146 0.06092386 0.17969112 0.5682364 0.32057667
0.39179096 0.34864596 0.027544579 0.1963474 0.53511846 0.11022503 0.39062816 0.1957807
-0.3703186 0.0940367 -0.20851256 -0.24886993 -0.06124074 -0.5086581 -0.020517783 -0.20101604
-0.049307544 0.20016928 -0.08456972 0.29606566 -0.022361575 0.4157491 -0.59404284 0.5601391
-0.16907486 0.3915248 0.63951916 0.042783737 0.40061584 -0.21970198 0.2426061 0.1529688
-0.13857524 0.07234125 0.17204563 -0.017115507 -0.08237147 0.031841137 0.04794438 0.5880584
0.3909557 0.42604977 0.4992028 0.45502546 0.5829663 0.42293936 0.6500273 0.4876073
0.636162 0.43842527 0.51338965 0.44584456 0.6603206 0.63053906 0.5688763 0.61615425
0.7084273 0.48454672 0.79036564 0.62814254 0.4137392 0.5459876 0.5448044 0.4822869
0.8206743 0.49337658 0.3615956 0.63273096 0.5525846 0.47440732 0.50620997 0.57105595
00000000: 9202 373f e4f7 043f fa86 e73e 9c7e 243f
00000010: 55ba 3e3f eb1b 1c3f cf3c 153f c99d c73e
00000020: 23fa 1c3f 8f29 e03e ca3d 0e3f 9c54 d83e
00000030: 6212 fa3e 34fd fb3e ea13 ae3e 36d1 413f
00000040: aa79 393f 6f4d 183f e2ee 763f 1231 033f
00000050: 1006 f63e c3e9 183f fec5 1b3f 9089 b13e
00000060: c1e4 273f 12d8 ae3e 1bc3 e13e 5a6c 2f3f
00000070: a6bf 333f 6842 213f 27d0 223f 256f 1b3f
00000080: 7392 843e 4327 173e 493e 443e 188a c63e
00000090: ab9a 4b3e 85a5 1e3e af06 953e 3d56 abbd
000000a0: b04f 9c3e bb30 943e 7495 9e3e b59f 883e
000000b0: 795a af3e 8d8b 103e ca50 edbb 72fb ae3e
000000c0: a32c bc3d 7d9e d83d 8cec 8e3e abaa c43e
000000d0: 4c8b 793d f300 383e f177 113f a022 a43e
000000e0: d398 c83e b981 b23e 2ba5 e13c 4b0f 493e
000000f0: 86fd 083f a9bd e13d 6a00 c83e bc7a 483e
00000100: 669a bdbe 5096 c03d 5184 55be c2d7 7ebe
00000110: 92d7 7abd 6b37 02bf e914 a8bc 26d7 4dbe
00000120: b5f6 49bd 2df9 4c3e e432 adbd eb95 973e
00000130: 9f2f b7bc 11dd d43e 3113 18bf 4765 0f3f
00000140: f621 2dbe f075 c83e 87b7 233f 003e 2f3d
00000150: 851d cd3e 8ef9 60be bc6d 783e daa3 1c3e
00000160: abe6 0dbe a627 943d bb2c 303e d235 8cbc
00000170: 60b2 a8bd da6b 023d 5461 443d ff8a 163f
00000180: 582b c83e 3223 da3e 8297 ff3e 19f9 e83e
00000190: 483d 153f 828b d83e 3068 263f aaa7 f93e
000001a0: 83db 223f 4779 e03e 816d 033f bd45 e43e
000001b0: c50a 293f 026b 213f e1a1 113f 49bc 1d3f
000001c0: 7e5b 353f 8216 f83e 6755 4a3f f3cd 203f
000001d0: a0d5 d33e d8c5 0b3f 4d78 0b3f 4fee f63e
000001e0: b617 523f db9b fc3e 0f23 b93e a8fa 213f
000001f0: 2f76 0d3f 84e5 f23e fa96 013f b930 123f

linear.weight f4 [1, 32]
0.2248027 0.15315758 0.14608498 0.3132495 0.2462765 0.43298236 0.37043396 0.056947943
0.13697954 -0.11007219 -0.15593453 -0.15492463 -0.30359712 -0.364318 0.5196506 -0.36213937
0.07973384 -0.16837344 -0.45525274 -0.2860198 -0.35904828 -0.0133472 -0.42841858 -0.006593066
-0.10925125 -0.0033927022 -0.16087759 0.47975442 0.4222603 0.03564386 0.10076764 -0.3942819
00000000: ae32 663e 57d5 1c3e 4d97 153e 3d62 a03e
00000010: e82f 7c3e ddaf dd3e 85a9 bd3e 3f42 693d
00000020: 5d44 0c3e 876d e1bd 4dad 1fbe 90a4 1ebe
00000030: 1571 9bbe e487 babe d207 053f 556a b9be
00000040: 7f4b a33d 166a 2cbe e316 e9be 3071 92be
00000050: 2dd5 b7be 37ae 5abc ae59 dbbe a50a d8bb
00000060: 1fbf dfbd 1958 5ebb 18bd 24be 5fa2 f53e
00000070: 8132 d83e 4cff 113d 445f ce3d 51df c9be
