models/generator_wgan.pth (torch, 215413 bytes, 9 tensors)

lstm.weight_ih_l0 f4 [256, 10]
-0.24948455 -0.08784696 -0.13570073 0.033091187 -0.047064465 -0.082798794 0.17962947 -0.088408135
-0.11695703 0.06928336 -0.15139586 0.0055123554 -0.12214709 -0.09059386 -0.030797854 0.035272423
-0.018554341 -0.2295734 -0.0035481425 -0.039758552 0.17659399 0.082657024 0.0990044 0.057609938
0.30583197 -0.040089328 -0.2379379 0.33956277 0.03590486 0.0964413 -0.25699443 -0.22821733
-0.27543274 0.13347392 -0.0447512 0.08735791 0.12032869 -0.13806175 -0.18169545 0.07318558
0.07031906 0.17450571 0.18974026 -0.12439562 -0.054567557 -0.013125966 -0.25239244 0.29940856
0.121158466 -0.26752174 0.33178747 0.4440121 0.11982306 0.07437622 -0.09751032 -0.08264751
-0.25723135 0.047746807 -0.038726185 -0.028440665 -0.0702391 0.08493147 -0.17385405 -0.006298672
-0.042991046 -0.039313488 0.07823731 -0.025659515 -0.13844179 -0.064138345 0.13364944 0.09290398
0.14009428 -0.12312117 -0.09295978 0.013139368 -0.06407031 0.055600062 0.072280824 0.0846183
0.16620027 0.17551312 -0.047858365 0.067267805 -0.23670734 0.19747563 -0.113106444 -0.025916912
0.10843381 -0.1548414 0.014328008 0.09215948 -0.0044079153 -0.09572691 0.23903011 0.100917496
-0.25037557 0.17240883 -0.05747422 -0.043630596 0.028646916 -0.13217737 -0.20828936 -0.059388485
0.03303554 0.12875682 0.17875893 -0.113412865 -0.07155627 -0.04476324 -0.017178731 -0.07572366
-0.24474546 0.02055279 0.12534517 0.1498949 0.20496793 -0.114859045 0.058449708 0.048601676
-0.029972902 -0.04090306 0.08750611 -0.060732607 -0.03869398 -0.01652798 -0.01786141 -0.048455898
-0.11335226 -0.0047189123 -0.03188028 0.14769876 0.20065817 -0.14315462 0.17203715 -0.036355484
-0.3006684 -0.09011608 0.28215617 -0.06549127 0.2733597 -0.023519494 0.1517226 0.122648254
0.17705064 0.0019980718 -0.111891456 -0.013716412 0.06912908 -0.15889391 0.027777068 0.10515493
0.30103743 -0.11327776 0.1106693 0.10448842 -0.17649539 -0.028589457 -0.053554423 0.057525355
-0.017619373 -0.15293126 -0.12818035 -0.10163202 -0.13132598 -0.034117885 0.21129727 -0.17187038
0.012804794 -0.025288304 -0.005286112 0.1634732 -0.0045796633 -0.0014648644 0.19083256 0.07903868
-0.04778742 0.20600098 0.11364548 -0.15551497 0.1771232 -0.028350124 0.014724093 0.1317486
-0.0679081 -0.18200205 0.18624845 -0.041867785 0.07180078 -0.18824728 0.05210313 -0.031450965
-0.07888161 0.07593556 -0.006618311 0.08529044 -0.064382 0.117625825 -0.0067258705 0.0450207
0.15808949 -0.056702927 -0.074238 0.17702588 -0.19993685 0.012938992 -0.16268052 -0.17137748
0.08242372 0.10657425 -0.222976 0.09343922 -0.14172222 -0.084320165 0.18553777 -0.019453771
0.16670483 0.026057543 -0.009100234 0.17212605 -0.061321754 -0.16470093 -0.07593089 0.18821417
0.045569856 -0.13921987 0.106201455 -0.01301713 -0.23492947 -0.17993899 0.19636759 0.17827877
0.1932903 0.17735195 0.018833727 0.025801416 0.10553248 0.15285918 -0.19472004 -0.13193068
0.053993713 -0.08101185 -0.16262564 -0.14304398 -0.17323692 0.142732 0.013084104 -0.13732518
-0.1589172 0.008165503 0.11682656 0.26895416 0.15773645 0.032754995 0.15506631 0.060507663
00000000: e178 7fbe 1be9 b3bd 22f5 0abe a08a 073d
00000010: abc6 40bd 6a92 a9bd caf0 373e 530f b5bd
00000020: 2b87 efbd 6fe4 8d3d 8407 1bbe fda0 b43b
00000030: 4128 fabd 4689 b9bd c84b fcbc d179 103d
00000040: 46ff 97bc 4a15 6bbe f487 68bb ddd9 22bd
00000050: 0ed5 343e 1648 a93d d2c2 ca3d 66f8 6b3d
00000060: 0296 9c3e b534 24bd fea5 73be 2cdb ad3e
00000070: f910 133d 0483 c53d c694 83be ceb1 69be
00000080: 8505 8dbe 63ad 083e 094d 37bd b4e8 b23d
00000090: e36e f63d 0f60 0dbe 5f0e 3abe 52e2 953d
000000a0: 7003 903d a0b1 323e 454b 423e 21c3 febd
000000b0: 3b82 5fbd 4b0e 57bc 9539 81be 144c 993e
000000c0: ee21 f83d 9cf8 88be 0ce0 a93e 8e55 e33e
000000d0: cb65 f53d 8f52 983d 7eb3 c7bd 1943 a9bd
000000e0: d4b3 83be 2892 433d 599f 1ebd 66fc e8bc
000000f0: 84d9 8fbd 8df0 ad3d cc06 32be 1765 cebb
00000100: 6117 30bd 2e07 21bd e23a a03d e733 d2bc
00000110: afc3 0dbe f75a 83bd 66db 083e 7144 be3d
00000120: e074 0f3e f426 fcbd b261 bebd 8146 573c
00000130: 4b37 83bd e4bc 633d f807 943d 5c4c ad3d
00000140: 6730 2a3e b6b9 333e 2207 44bd b4c3 893d
00000150: 6963 72be 0d37 4a3e 5aa4 e7bd b44f d4bc
00000160: 8c12 de3d be8e 1ebe 05c0 6a3c 1cbe bc3d
00000170: 4670 90bb 780c c4bd 4fc4 743e d5ad ce3d
00000180: 3a31 80be f18b 303e 166a 6bbd ffb5 32bd
00000190: f0ac ea3c 8159 07be ce49 55be 5741 73bd
000001a0: 4650 073d d4d8 033e 950c 373e 0145 e8bd
000001b0: 188c 92bd a959 37bd 69ba 8cbc 0215 9bbd
000001c0: 8e9e 7abe 535e a83c 7c5a 003e 0c7e 193e
000001d0: 1de3 513e 383b ebbd f668 6f3d 8d12 473d
000001e0: bb89 f5bc f889 27bd 6736 b33d c1c2 78bd
000001f0: 947d 1ebd b065 87bc 1752 92bc b179 46bd
00000200: 3b25 e8bd 1ba1 9abb e594 02bd 583e 173e
00000210: 5679 4d3e 2097 12be 822a 303e 7de9 14bd
00000220: 35f1 99be c88e b8bd c676 903e 4920 86bd
00000230: cdf5 8b3e f4ab c0bc 2b5d 1b3e 022f fb3d
00000240: c34c 353e 15f2 023b 5927 e5bd cdba 60bc
00000250: 8c93 8d3d 16b5 22be bc8c e33c 785b d73d
00000260: 9421 9a3e 2cfe e7bd 96a6 e23d 06fe d53d
00000270: 35bb 34be 7034 eabc e25b 5bbd b59f 6b3d
00000280: 8156 90bc 039a 1cbe b641 03be 7324 d0bd
00000290: 517a 06be 32bf 0bbd 505e 583e cafe 2fbe
000002a0: 33cb 513c 6b29 cfbc 1f37 adbb 8565 273e
000002b0: 0011 96bb b100 c0ba 9c69 433e 08df a13d
000002c0: bebc 43bd ecf1 523e f6be e83d 513f 1fbe
000002d0: c95f 353e 853e e8bc 523d 713c 1be9 063e
000002e0: 6713 8bbd bf5e 3abe eab7 3e3e 8e7d 2bbd
000002f0: 4a0c 933d e5c3 40be 176a 553d bad2 00bd
00000300: ae8c a1bd 1a84 9b3d 6bde d8bb c1ac ae3d
00000310: b6da 83bd cfe5 f03d b164 dcbb a067 383d
00000320: 36e2 213e 5441 68bd 180a 98bd 4646 353e
00000330: 3fbc 4cbe 11fe 533c b995 26be 947d 2fbe
00000340: c4cd a83d 9a43 da3d d253 64be 105d bf3d
00000350: a11f 11be 0db0 acbd 9dfd 3d3e 845d 9fbc
00000360: acb4 2a3e a176 d53c 2619 15bc d041 303e
00000370: 852c 7bbd 5ca7 28be a881 9bbd 37bb 403e
00000380: 75a7 3a3d a78f 0ebe 2680 d93d cd45 55bc
00000390: 5a91 70be ed41 38be 9614 493e b68e 363e
000003a0: e4ed 453e c09b 353e 3049 9a3c 7e5d d33c
000003b0: 6a21 d83d 1e87 1c3e b164 47be d618 07be
000003c0: 8328 5d3d 8ae9 a5bd 5687 26be 1f7a 12be
000003d0: 0565 31be 5628 123e b65e 563c f99e 0cbe
000003e0: 31bb 22be 9ac8 053c c342 ef3d 5cb4 893e
000003f0: aa85 213e 1a2a 063d b4c9 1e3e e2d6 773d

lstm.weight_hh_l0 f4 [256, 64]
-0.025681458 -0.053604465 0.07741364 0.093277305 0.08491404 0.041309953 0.054188404 -0.07979771
-0.06022119 -0.014731924 0.22081189 -0.075266935 0.13608463 -0.076035 -0.0763201 0.04460349
0.11888959 0.035640884 -0.020875994 -0.11506683 0.12656277 0.04411439 0.02290238 0.065552376
0.035333153 -0.031990856 0.006335327 0.046647508 0.06374884 -0.02252131 -0.16068783 -0.07559985
0.010686326 -0.12419038 -0.04965748 0.0104956 -0.197139 0.21027489 -0.05880849 -0.19826879
-0.0117347445 0.10167227 -0.189744 0.12148174 0.03183656 0.060017183 0.10231426 -0.035540447
0.19152838 0.24318112 0.039258707 -0.023904389 0.16938265 0.15940505 -0.027833859 0.09108311
0.14218476 0.033230755 0.003048006 0.12725879 -0.036774505 0.12315701 0.1694096 -0.09232905
-0.025886951 0.021133883 0.07024144 -0.07725799 -0.05422008 -0.04579013 0.0040399493 -0.038049176
-0.13447082 0.15907976 0.1286045 -0.013851182 -0.017443253 -0.0670818 -0.07936983 0.1491834
-0.0784905 -0.046931915 -0.0020652062 0.06106677 0.08331016 -0.07450744 0.07607227 0.12556788
0.08706193 0.13444825 -0.10842061 -0.04020202 -0.12834851 0.044107627 -0.060679276 0.020380504
0.089898005 -0.13679217 0.15061082 0.046273265 -0.17401308 -0.09331744 0.041463435 -0.07241199
-0.07910579 -0.06334117 -0.07542804 -0.06863632 -0.20776097 0.16685359 -0.076533765 -0.05784879
0.059522286 0.080444366 0.08842531 -0.0147265205 0.096928 -0.025977848 0.031312365 0.08408664
-0.07242957 -0.17255673 -0.08065593 0.04480911 -0.0053519174 0.015279428 -0.04448948 -0.05363018
0.04226217 -0.15311883 -0.09207623 0.015347931 -0.09734038 0.046540115 -0.17373818 -0.13241
-0.07807774 -0.016717138 0.06869457 0.106783435 0.0037626638 0.09585289 -0.08581149 0.038269788
-0.06525523 -0.124596454 0.03458102 -0.066000246 0.20496693 0.051860694 -0.046491876 -0.074676104
0.23304887 -0.024724986 0.032927144 0.17225286 0.08046575 0.14961985 0.0011187755 0.008039322
-0.010010194 -0.029683683 0.02207266 -0.061040986 -0.18021448 0.010225086 0.0565175 0.062397476
0.08112395 0.02307061 0.08067488 -0.048120346 -0.038883638 0.22246328 -0.059761647 -0.033428498
-0.05931556 0.11790846 -0.044007096 -0.015547825 0.067111254 0.044627022 0.054628428 -0.058400717
-0.01817113 -0.18989621 -0.012127617 -0.00012354853 0.09306478 0.1069721 0.17453976 -0.09462719
-0.048723675 -0.23023847 0.0024721208 0.13086803 -0.1441932 -0.12428215 -0.15293968 0.09133285
-0.08393752 0.06934252 0.038990982 0.11089716 -0.054729123 -0.13402018 -0.021809287 0.09414421
0.18235943 -0.15418594 0.09627919 -0.10180024 0.17396481 0.044527095 0.038627144 0.008856339
0.23329325 -0.0030660923 -0.13735855 0.08343391 -0.12034361 0.08278079 -0.07899131 0.0077521964
0.100775756 -0.11671647 0.003064213 -0.106045015 -0.10453585 0.02277368 -0.008567463 -0.021560507
0.02106366 0.09561008 -0.063851185 0.11963165 0.012734516 0.13514252 0.17655352 -0.05349599
0.18204159 0.21866342 0.03106967 -0.037002146 0.02449301 -0.018028764 0.1950256 0.1117153
0.019820664 0.047611803 -0.19754311 0.049729377 0.1979436 0.09511719 0.10260247 -0.016083604
00000000: ec61 d2bc 5b90 5bbd 0b8b 9e3d 2c08 bf3d
00000010: 6ae7 ad3d a034 293d a9f4 5d3d fb6c a3bd
00000020: 7faa 76bd 2b5e 71bc 831c 623e 8d25 9abd
00000030: c559 0b3e 3db8 9bbd b64d 9cbd 26b2 363d
00000040: 637c f33d 2dfc 113d 2204 abbc 28a8 ebbd
00000050: ac99 013e 4ab1 343d c69d bb3c 5340 863d
00000060: 7fb9 103d d808 03bd 9398 cf3b 7511 3f3d
00000070: c08e 823d 9c7e b8bc 5a8b 24be 18d4 9abd
00000080: b315 2f3c 8757 febd a465 4bbd bdf5 2b3c
00000090: cede 49be 4d52 573e 2ce1 70bd f906 4bbe
000000a0: 1643 40bc 8d39 d03d 404c 42be 6bcb f83d
000000b0: 0e67 023d 94d4 753d 248a d13d dc92 11bd
000000c0: 0420 443e 7904 793e bdcd 203d 23d3 c3bc
000000d0: a572 2d3e 143b 233e d503 e4bc c889 ba3d
000000e0: e298 113e f91c 083d 0ec1 473b 2150 023e
000000f0: dda0 16bd be39 fc3d b679 2d3e 0317 bdbd
00000100: df10 d4bc f720 ad3c beda 8f3d 7039 9ebd
00000110: e015 5ebd 6e8e 3bbd 8d61 843b 74d9 1bbd
00000120: b8b2 09be cee5 223e e6b0 033e 11f0 62bc
00000130: 27e5 8ebc 2f62 89bd a68c a2bd 89c3 183e
00000140: a1bf a0bd ae3b 40bd 6958 07bb 2621 7a3d
00000150: 849e aa3d 5b97 98bd c7cb 9b3d de94 003e
00000160: 864d b23d cdac 093e a00b debd e0aa 24bd
00000170: cb6d 03be 33aa 343d d58a 78bd 04f5 a63c
00000180: 721c b83d 3f13 0cbe b939 1a3e 0989 3d3d
00000190: 7c30 32be 371d bfbd 90d5 293d bd4c 94bd
000001a0: 3702 a2bd 04b9 81bd 047a 9abd 3391 8cbd
000001b0: 4bbf 54be abdb 2a3e bcbd 9cbd daf2 6cbd
000001c0: a4cd 733d 04c0 a43d 5418 b53d 8147 71bc
000001d0: 3082 c63d 7fcf d4bc 6541 003d 9e35 ac3d
000001e0: f455 94bd b6b2 30be f02e a5bd c289 373d
000001f0: 235f afbb 9156 7a3c 9a3a 36bd 52ab 5bbd
00000200: 191b 2d3d 2fcb 1cbe 7692 bcbd e375 7b3c
00000210: 655a c7bd d9a0 3e3d 6ce8 31be 7d96 07be
00000220: 39e7 9fbd 61f2 88bc bdaf 8c3d 46b1 da3d
00000230: 0697 763b 854e c43d efbd afbd c8c0 1c3d
00000240: 89a4 85bd 6d2c ffbd d4a4 0d3d 232b 87bd
00000250: dae2 513e e16b 543d 446e 3ebd c9ef 98bd
00000260: 5da4 6e3e 0e8c cabc 9dde 063d 0e63 303e
00000270: 3acb a43d f235 193e e0a3 923a 5cb7 033c
00000280: cc01 24bc 322b f3bc b9d1 b43c 1d06 7abd
00000290: 258a 38be 1e87 273c e57e 673d 7f94 7f3d
000002a0: 5024 a63d 93fe bc3c df38 a53d d719 45bd
000002b0: 7344 1fbd 6acd 633e a1c8 74bd 52ec 08bd
000002c0: dff4 72bd fe79 f13d c940 34bd 4ebc 7ebc
000002d0: a071 893d d3ca 363d 0fc2 5f3d 9735 6fbd
000002e0: 9fdb 94bc 2774 42be eab2 46bc ce8c 01b9
000002f0: bf98 be3d 3014 db3d 8dba 323e e6cb c1bd
00000300: 7a92 47bd a2c3 6bbe 4e03 223b 4502 063e
00000310: 62a7 13be a487 febd 389c 1cbe b80c bb3d
00000320: 6fe7 abbd 7303 8e3d 02b5 1f3d 0d1e e33d
00000330: a52b 60bd 963c 09be 64a9 b2bc aece c03d
00000340: 6ebc 3a3e ebe2 1dbe 062e c53d a57c d0bd
00000350: d523 323e 0b62 363d 7f37 1e3d 2e1a 113c
00000360: 6de4 6e3e 7ef0 48bb b8a7 0cbe 66df aa3d
00000370: b676 f6bd fa88 a93d 32c6 a1bd 2306 fe3b
00000380: 8563 ce3d 0b09 efbd f7d0 483b 212e d9bd
00000390: e416 d6bd de8f ba3c 8b5e 0cbc a99f b0bc
000003a0: b28d ac3c 38cf c33d 69c4 82bd 7001 f53d
000003b0: 6ea4 503c cd62 0a3e 72ca 343e 9c1e 5bbd
000003c0: 1c69 3a3e 4ee9 5f3e d285 fe3c 908f 17bd
000003d0: 91a5 c83c 0fb1 93bc cab4 473e feca e43d
000003e0: f25e a23c 9804 433d be48 4abe 08b1 4b3d
000003f0: bab1 4a3e cdcc c23d 3e21 d23d c3c1 83bc

lstm.bias_ih_l0 f4 [256]
0.15481333 0.23442316 0.23668373 0.3384265 0.15552132 0.46535814 0.38951406 0.17539811
0.011815424 0.42721495 0.34965912 0.30153793 0.15602863 0.27729854 0.048657443 0.32676464
0.2614199 0.1728983 0.19101244 0.33533007 0.2573678 0.17048788 0.3109098 0.48137242
0.09092599 0.12204142 0.30436656 0.28859225 0.21711367 0.11659565 0.2743441 0.07928134
0.20783262 0.33582908 0.25273448 0.11011703 0.11875594 0.21385103 0.22064328 0.32878852
0.044298645 0.29165074 0.1995372 0.3504859 0.31412217 0.14607032 0.3171398 0.45344463
0.3724096 0.09021515 0.26990053 0.3374139 0.15894292 0.21022667 0.32612982 0.27010584
0.09163138 0.17599729 0.20912515 0.13261189 0.2550472 0.24710353 0.25321263 0.2431207
0.038551718 -0.11835134 -0.049277812 0.06274695 0.12019208 0.00045190912 0.1088903 0.09751554
-0.0478237 0.03256317 0.031930294 0.021941049 0.17578854 -0.12757824 0.10833989 0.13529211
0.008256511 -0.03153117 -0.02222008 0.03584538 0.020436078 0.06830816 0.11338461 0.15982123
-0.09027622 0.08734587 -0.0076386575 0.11218247 0.12021929 0.14863114 0.08078383 0.1497057
0.06999182 -0.03288465 0.07555991 0.045966454 -0.09158065 -0.04446894 -0.09947281 0.09450137
-0.038266897 -0.03560821 -0.05571554 0.21874464 0.104401 0.11034237 -0.04564846 0.3355496
-0.13500334 0.069550015 0.012666021 0.071550384 0.03490203 -0.05271258 0.06621551 0.14417268
0.18579695 -0.032224014 -0.0049445215 -0.02854421 -0.05136052 0.0012934974 -0.05989542 0.14304622
0.29801562 -0.18091275 0.34187588 0.3720296 -0.12677921 -0.17957218 -0.17391784 0.060462248
-0.15118264 0.3858605 0.057410505 0.28041455 0.02156914 -0.24033648 -0.12479772 0.3459239
0.20251387 -0.20291506 -0.11618872 -0.10437855 0.25407276 0.12552916 0.17939873 0.37049192
0.17483094 0.1947279 -0.06738554 0.20610557 -0.3368734 0.008234608 0.21281719 -0.010142808
0.44182062 -0.06151422 0.13337559 0.04644846 -0.19837303 -0.047837663 -0.049955722 -0.12837206
0.012504111 0.252404 -0.032013673 0.17035365 -0.1392865 0.07138105 0.45464125 0.42872712
0.06621432 0.1993836 -0.2614101 0.36942804 0.10793596 0.17557757 -0.004099566 0.27447358
0.19427305 -0.09284687 -0.07243449 0.039949883 0.20351677 0.11518409 -0.14621055 -0.21284084
0.07056373 0.1958041 0.22460537 0.36751527 0.25577766 0.48296013 0.20030165 0.15043712
0.23016095 0.19999364 0.32974708 0.15010627 0.06731892 0.31237286 0.09706369 0.05571321
0.14026295 0.16488561 0.1814316 0.23639618 0.19089796 0.18388985 0.21411312 0.23049974
0.11451466 0.23263767 0.17451335 0.16462813 0.3671869 0.017326236 0.26135054 0.15281124
0.19233377 0.3012682 0.10547046 -0.013558682 0.27995342 0.20488282 0.3920768 0.27192566
0.1814617 0.37838367 0.15476699 0.15174557 0.13113861 0.14114352 0.41909313 0.27444428
0.31684935 0.03539909 0.24293701 0.35631862 0.22272319 0.18009414 0.4127355 0.24552222
0.08730368 0.15213166 0.27923912 0.36197644 0.23701254 0.34220916 0.2192541 0.08504281
00000000: 6387 1e3e a00c 703e 385d 723e 3d46 ad3e
00000010: fb40 1f3e 6c43 ee3e 636e c73e 909b 333e
00000020: 7b95 413c ebbb da3e 8506 b33e 2e63 9a3e
00000030: f8c5 1f3e 13fa 8d3e 074d 473d b24d a73e
00000040: d4d8 853e 410c 313e c498 433e 62b0 ab3e
00000050: b6c5 833e 6094 2e3e 922f 9f3e 7276 f63e
00000060: 6837 ba3d daf0 f93d efd5 9b3e 5dc2 933e
00000070: 0c53 5e3e b3c9 ee3d d476 8c3e 415e a23d
00000080: 13d2 543e caf1 ab3e 6a66 813e 0a85 e13d
00000090: 5036 f33d c4fb 5a3e 50f0 613e f856 a83e
000000a0: 7f72 353d 3f53 953e 7b53 4c3e e372 b33e
000000b0: 9fd4 a03e 7593 153e 2660 a23e e529 e83e
000000c0: 79ac be3e b8c2 b83d 6730 8a3e 84c1 ac3e
000000d0: efc1 223e a945 573e 7dfa a63e 504b 8a3e
000000e0: 3ca9 bb3d a238 343e e724 563e 69cb 073e
000000f0: 8c95 823e b508 7d3e 16a5 813e a2f4 783e
00000100: 68e8 1d3d 3062 f2bd 88d7 49bd 7981 803d
00000110: 4427 f63d 37ee ec39 e101 df3d 3ab6 c73d
00000120: c9e2 43bd f560 053d 57c9 023d b7bd b33c
00000130: e901 343e dfa3 02be 4ee1 dd3d 048a 0a3e
00000140: 5146 073c d426 01bd e306 b6bc 9bd2 123d
00000150: 9069 a73c 26e5 8b3d 3136 e83d 2da8 233e
00000160: bde2 b8bd 64e2 b23d b44d fabb ecbf e53d
00000170: 8835 f63d c332 183e fe71 a53d 734c 193e
00000180: df57 8f3d 0eb2 06bd 27bf 9a3d 5247 3c3d
00000190: a38e bbbd 1025 36bd 67b8 cbbd ef89 c13d
000001a0: c0bd 1cbd ead9 11bd fa35 64bd 98fe 5f3e
000001b0: 31d0 d53d 2efb e13d e1f9 3abd 28cd ab3e
000001c0: 513e 0abe 3d70 8e3d 2485 4f3c 0289 923d
000001d0: 6ef5 0e3d 25e9 57bd ff9b 873d 01a2 133e
000001e0: 8e41 3e3e 54fd 03bd a705 a2bb 8cd5 e9bc
000001f0: 695f 52bd 928a a93a e654 75bd b57a 123e
00000200: 8195 983e 3141 39be 5b0a af3e aa7a be3e
00000210: 69d2 01be c5e1 37be 8517 32be 43a7 773d
00000220: 9fcf 1abe 828f c53e 4727 6b3d 7f92 8f3e
00000230: c4b1 b03c c41a 76be f295 ffbd f01c b13e
00000240: cc5f 4f3e f7c8 4fbe 5af4 edbd 6cc4 d5bd
00000250: d315 823e b78a 003e 4db4 373e 1eb1 bd3e
00000260: e206 333e c066 473e 6e01 8abd 570d 533e
00000270: ac7a acbe 73ea 063c c0ec 593e 052e 26bc
00000280: 5036 e23e 56f6 7bbd 9c93 083e be40 3e3d
00000290: 4d22 4bbe 6df1 43bd 5f9e 4cbd f773 03be
000002a0: 0bde 4c3c 193b 813e c520 03bd 3071 2e3e
000002b0: 1fa1 0ebe 3a30 923d bdc6 e83e 1f82 db3e
000002c0: 609b 873d 372b 4c3e 8bd7 85be ac25 bd3e
000002d0: 870d dd3d 9bca 333e a755 86bb cd87 8c3e
000002e0: 84ef 463e 8026 bebd 8958 94bd 7da2 233d
000002f0: b366 503e a3e5 eb3d 38b8 15be f3f2 59be
00000300: b883 903d df80 483e f3fe 653e f62a bc3e
00000310: 4af5 823e 8d46 f73e e01b 4d3e 300c 1a3e
00000320: 50af 6b3e 22cb 4c3e 9cd4 a83e 75b5 193e
00000330: 80de 893d 56ef 9f3e 54c9 c63d 8933 643d
00000340: 17a1 0f3e c6d7 283e 35c9 393e d711 723e
00000350: c17a 433e 9f4d 3c3e 7840 5b3e 2008 6c3e
00000360: a986 ea3d 9238 6e3e a1b3 323e 4794 283e
00000370: ecff bb3e c0ef 8d3c bdcf 853e 8d7a 1c3e
00000380: 25f3 443e d33f 9a3e e600 d83d 3c25 5ebc
00000390: 0e56 8f3e cdcc 513e 4abe c83e d739 8b3e
000003a0: 19d1 393e 81bb c13e 3d7b 1e3e 3163 1b3e
000003b0: 3349 063e ed87 103e 6093 d63e f683 8c3e
000003c0: 143a a23e a3fe 103d 7bc4 783e 656f b63e
000003d0: 8c11 643e 996a 383e 1152 d33e 2d6a 7b3e
000003e0: 46cc b23d 67c8 1b3e 6ef8 8e3e fa54 b93e
000003f0: 6ab3 723e 0a36 af3e 2684 603e ed2a ae3d

lstm.bias_hh_l0 f4 [256]
0.14392434 0.24140379 0.23280959 0.30550468 0.22115287 0.39182895 0.28528413 0.2508149
0.25276965 0.2499879 0.2367971 0.22422421 0.2306738 0.29691067 0.26476195 0.28208247
0.13441238 0.09810752 0.14153497 0.15359281 0.09563602 0.16478518 0.118743114 0.43015945
0.16967267 0.16493283 0.2620058 0.24551286 0.16957173 0.13736385 0.12327962 0.10043919
0.33917055 0.12786043 0.24845919 0.10764516 0.17418596 0.11732745 0.16351558 0.24021925
0.06286942 0.27028286 0.2722348 0.2109744 0.33355227 0.17464747 0.43763435 0.38413438
0.45212135 0.06511667 0.2050832 0.35419214 0.049944386 0.4038893 0.3861067 0.14998546
0.0637859 0.26644796 0.20363873 0.20304166 0.2423315 0.38783148 0.16458991 0.18821445
0.094866656 0.03635642 0.010479364 -0.00539175 -0.054988157 -0.031178419 0.12921715 0.1275667
-0.008565483 0.041599814 0.09262429 -0.047087286 0.10684538 0.050537754 0.110776536 0.0023631281
0.08561956 -0.07974163 0.05675829 0.05958738 -0.15995525 0.09073478 0.057801697 0.07946587
-0.09885523 0.08928628 -0.052159876 -0.07355941 0.16056792 -0.012105363 0.07534771 0.02000163
0.100794815 0.008261747 0.05604906 0.08560239 0.117087625 -0.04094759 -0.048511982 0.05823067
0.09946239 0.023042317 0.06138073 0.15670654 -0.08779507 0.031884246 -0.06171998 0.19701712
-0.19610353 0.020175176 -0.06157725 -0.0042475024 -0.013367625 -0.15492791 0.07172595 0.18811361
0.155426 -0.02898688 -0.071804106 -0.10932177 -0.030090773 -0.056845244 0.11767453 0.10156122
0.13562962 -0.18709494 0.5041544 0.26835382 -0.25060898 -0.29503408 0.0074372636 0.13986234
-0.23505859 0.37365702 0.046453226 0.27824643 0.07543155 -0.14258188 -0.2181007 0.2776888
0.21935934 -0.23413022 -0.07527601 0.06961087 0.16939232 0.2271748 0.20968603 0.48271152
0.17420763 0.19909543 -0.11292289 0.21286233 -0.32591435 -0.18613411 0.028089467 -0.06745098
0.43946424 -0.2759318 0.0076227672 0.16507277 -0.09945054 0.03667113 -0.26848203 0.016114406
-0.046073593 0.34439078 0.03820755 0.23002137 -0.13875332 0.14608313 0.4389012 0.31704065
0.22129367 0.13927266 -0.3186861 0.51758903 0.06456513 0.25332373 -0.055543166 0.047175664
0.20962179 -0.20344755 -0.09447791 -0.19522431 0.20546956 -0.037628397 -0.0102724265 -0.22007072
0.2416788 0.24695875 0.44611242 0.30544513 0.21514177 0.41181582 0.1910659 0.2706586
0.17146578 0.2980218 0.21015006 0.1280527 0.22753873 0.21841343 0.110440604 0.13258287
0.15900905 0.09871148 0.122733384 0.11356544 0.13306177 0.013527103 0.29533938 0.1897011
0.30621225 0.23750223 0.3329218 0.2814919 0.20231935 0.226288 0.29179317 0.1444181
0.17450225 0.20940627 0.1436557 0.1786341 0.22400057 0.04619593 0.34195486 0.44301048
0.23175563 0.16214876 0.09097326 0.12561975 0.26670438 0.011820595 0.39146572 0.23409832
0.36886418 0.10032772 0.19988805 0.20903839 0.081683666 0.3683303 0.2877 0.28941795
0.16727372 0.069293536 0.16073413 0.16346912 0.061315615 0.25599244 0.15250605 0.15974757
00000000: e760 133e 8e32 773e a365 6e3e 1c6b 9c3e
00000010: e675 623e ce9d c83e c310 923e d06a 803e
00000020: 066b 813e d4fc 7f3e f07a 723e 089b 653e
00000030: c135 6c3e ad04 983e e18e 873e 1d6d 903e
00000040: 66a3 093e 98ec c83d 8bee 103e 6f47 1d3e
00000050: d1dc c33d 72bd 283e 972f f33d dc3d dc3e
00000060: acbe 2d3e 27e4 283e a025 863e b967 7b3e
00000070: 36a4 2d3e 1ca9 0c3e 077a fc3d 10b3 cd3d
00000080: c3a7 ad3e d8ed 023e 166c 7e3e 1175 dc3d
00000090: ce5d 323e 6049 f03d a170 273e 09fc 753e
000000a0: afc1 803d 8462 8a3e 5c62 8b3e ac09 583e
000000b0: 5dc7 aa3e c9d6 323e 9c11 e03e 43ad c43e
000000c0: 737c e73e e45b 853d 5501 523e ac58 b53e
000000d0: 7c92 4c3d 94ca ce3e c7af c53e ca95 193e
000000e0: 2fa2 823d de6b 883e ac86 503e 27ea 4f3e
000000f0: c025 783e d991 c63e 428a 283e 4abb 403e
00000100: 7349 c23d 78ea 143d a3b1 2b3c 47ad b0bb
00000110: 433b 61bd e269 ffbc 8051 043e d8a0 023e
00000120: 3d56 0cbc 9164 2a3d ceb1 bd3d 99de 40bd
00000130: c0d1 da3d ad00 4f3d cfde e23d b6de 1a3b
00000140: 4f59 af3d 944f a3bd 617b 683d e611 743d
00000150: 4fcb 23be 28d3 b93d 79c1 6c3d 01bf a23d
00000160: 9c74 cabd badb b63d 98a5 55bd 51a6 96bd
00000170: eb6b 243e 9355 46bc e64f 9a3d 75da a33c
00000180: 836d ce3d 475c 073c b393 653d 4e50 af3d
00000190: a3cb ef3d a9b8 27bd 80b4 46bd 4883 6e3d
000001a0: f0b2 cb3d 3ec3 bc3c 5c6a 7b3d ae77 203e
000001b0: e7cd b3bd 0e99 023d 17ce 7cbd dbbe 493e
000001c0: 5dcf 48be 6946 a53c 6d38 7cbd a22e 8bbb
000001d0: e203 5bbc 6ca5 1ebe 0ee5 923d dba0 403e
000001e0: fe27 1f3e e575 edbc 080e 93bd 18e4 dfbd
000001f0: ed80 f6bc 8fd6 68bd 58ff f03d 54ff cf3d
00000200: 7ee2 0a3e d195 3fbe 4310 013f ac65 893e
00000210: d24f 80be b50e 97be 4ab4 f33b 1338 0f3e
00000220: 33b3 70be f94f bf3e bd45 3e3d 5176 8e3e
00000230: db7b 9a3d fc00 12be ca55 5fbe 3a2d 8e3e
00000240: bc9f 603e d5bf 6fbe 4f2a 9abd 2590 8e3d
00000250: 2e75 2d3e 83a0 683e efb7 563e f725 f73e
00000260: 7c63 323e acdf 4b3e 1e44 e7bd 95f8 593e
00000270: 3fde a6be f199 3ebe e21b e63c bd23 8abd
00000280: 7501 e13e ef46 8dbe 68c8 f93b d608 293e
00000290: baac cbbd 7834 163d 7a76 89be 5c02 843c
000002a0: aab7 3cbd fd53 b03e 857f 1c3d b98a 6b3e
000002b0: 5a15 0ebe d196 153e a8b7 e03e 2753 a23e
000002c0: cf9a 623e 7e9d 0e3e d32a a3be b780 043f
000002d0: b93a 843d a6b3 813e 3b81 63bd 453b 413d
000002e0: 18a7 563e 8e54 50be a27d c1bd e2e8 47be
000002f0: 9d66 523e 3c20 1abd ae4d 28bc 385a 61be
00000300: a67a 773e c1e2 7c3e d968 e43e 4e63 9c3e
00000310: 204e 5c3e 86d9 d23e c7a6 433e c493 8a3e
00000320: ba94 2f3e 5096 983e 9431 573e 3f20 033e
00000330: eaff 683e c5a7 5f3e af2e e23d cec3 073e
00000340: 45d3 223e 3f29 ca3d a45b fb3d ff94 e83d
00000350: 5841 083e c8a0 5d3c b936 973e 0141 423e
00000360: dac7 9c3e c933 733e ba74 aa3e b51f 903e
00000370: ce2c 4f3e 0bb8 673e ea65 953e 57e2 133e
00000380: b8b0 323e 996e 563e 7b1a 133e dceb 363e
00000390: 6860 653e f237 3d3d b514 af3e 45d2 e23e
000003a0: 5951 6d3e 530a 263e 3050 ba3d 77a2 003e
000003b0: 7a8d 883e 2bab 413c 326e c83e 78b7 6f3e
000003c0: c4db bc3e 9f78 cd3d 74af 4c3e 290e 563e
000003d0: c449 a73d ca95 bc3e 6a4d 933e 972e 943e
000003e0: cd49 2b3e c5e9 8d3d 7d97 243e 7364 273e
000003f0: 1526 7b3d 7111 833e 8c2a 1c3e de94 233e

lstm.weight_ih_l1 f4 [256, 64]
0.2874219 -0.020998664 0.4562248 0.22137548 -0.35099292 -0.2942166 -0.031658437 0.1654803
-0.20802876 0.42614067 0.0176419 0.22226706 0.1340416 -0.576545 -0.05583562 0.32931587
0.3231738 -0.34416273 -0.0660543 -0.10121334 0.28206635 0.23795691 0.35377523 0.27652052
0.21561156 0.20413232 -0.4189974 0.3174508 -0.2687757 -0.2079024 0.07807659 -0.10768416
0.30832335 -0.025960425 0.11042069 0.13385308 -0.09803327 0.030555094 -0.37133044 0.0005336306
0.062000476 0.51286036 0.08700564 0.2301404 -0.3533934 0.24993658 0.27507627 0.35273516
0.18633588 0.21273664 -0.24685878 0.3585661 0.076127864 0.37303928 -0.0038036928 0.17061153
0.19076282 -0.270628 -0.015383854 -0.11899683 0.5341464 0.0347973 0.01607768 -0.21084017
0.022149302 -0.15324011 0.22325476 0.025078924 0.0029080182 -0.09348036 -0.1176567 0.07985195
-0.14951062 0.15572615 0.2527736 0.21802537 -0.0903165 -0.27512345 -0.1925455 0.106625244
0.043139305 -0.07652582 -0.09773514 -0.15967593 0.18208687 0.120759554 0.21804556 0.16369699
0.16297351 0.03889735 0.021027531 0.0050558364 -0.115889795 -0.22225483 -0.011591512 0.18043497
0.13990109 -0.26904735 0.20467506 0.10470984 -0.17765321 0.023048716 -0.06293169 -0.25931138
-0.06681575 0.07122147 0.110511094 0.19278961 0.06329969 0.114947565 0.0070760217 0.14496438
0.13736752 0.14558947 -0.07352677 0.1375498 -0.17538305 0.06230298 -0.014016583 0.13235044
0.15480095 -0.13956186 -0.18691163 -0.1465061 0.22962093 0.101835094 -0.13194904 -0.0271318
0.17288092 -0.3015648 0.08120511 0.07473276 0.04185222 -0.18330814 0.022042124 -0.05800574
-0.13945934 0.10903448 0.21801068 0.07286534 -0.046136472 -0.18146291 0.009621504 0.17665094
0.24054332 -0.18759942 -0.06817812 -0.022105072 0.07776524 0.2397894 0.12702335 0.20498261
0.08774696 0.1578891 0.08518435 0.14111067 -0.0075121443 -0.089736186 -0.058994748 0.15012464
0.07678265 -0.07576631 0.068677306 0.17258073 -0.21905275 0.18725489 -0.212119 -0.1435611
0.02969336 0.23654242 0.007793836 -0.018953897 -0.080866575 -0.016420316 0.08204566 0.13716364
0.051370792 0.21798016 -0.11033885 0.089960635 0.025983036 0.13094524 0.20171121 0.12806222
0.1587478 -0.2647091 -0.11110452 0.08999212 0.26104844 0.078951344 0.105275564 -0.277748
0.20269816 -0.019156046 0.009095184 0.22394484 -0.19010757 -0.005619184 -0.05697005 0.162595
-0.13915385 0.20363005 0.006205031 0.06641136 -0.030497162 -0.18504216 -0.019520652 0.08147299
0.21548724 -0.25248668 -0.11761355 0.037765384 0.10222479 0.01245399 0.16316672 0.20463091
0.11419176 0.1623756 -0.16381116 0.12563516 -0.16071548 -0.13839407 -0.06764474 -0.029092992
0.13999462 0.030613836 -0.032983907 -0.0070723626 0.032315087 -0.081815116 -0.06447563 -0.012787265
0.1228237 0.22614916 -0.010183418 0.024753634 0.0112136975 0.02413141 0.028733794 0.16247326
0.013524216 0.1545748 -0.032050975 0.21407884 0.117461815 0.19208187 0.08600644 0.14774494
0.10396672 -0.118036166 -0.055961978 0.15355083 0.12073276 -0.046318293 -0.034797344 -0.085347675
00000000: f728 933e 6405 acbc 4c96 e93e 41b0 623e
00000010: 58b5 b3be 8fa3 96be 47ac 01bd ab73 293e
00000020: 7e05 55be 1c2f da3e bf85 903c fa99 633e
00000030: 3442 093e 7498 13bf e4b3 64bd 179c a83e
00000040: 0977 a53e 1936 b0be 7a47 87bd f148 cfbd
00000050: 006b 903e faaa 733e 0722 b53e 1994 8d3e
00000060: 47c9 5c3e 1008 513e d486 d6be e988 a23e
00000070: f89c 89be 5ee4 54be 9fe6 9f3d 8389 dcbd
00000080: 8fdc 9d3e f5aa d4bc 3e24 e23d c810 093e
00000090: abc5 c8bd ad4e fa3c 061f bebe 58e3 0b3a
000000a0: 36f4 7d3d d14a 033f 0330 b23d eda9 6b3e
000000b0: fbef b4be 60ef 7f3e ccd6 8c3e b499 b43e
000000c0: d5ce 3e3e a2d7 593e 8cc8 7cbe fa95 b73e
000000d0: ede8 9b3d 01ff be3e 6047 79bb cab4 2e3e
000000e0: 5457 433e c18f 8abe 8f0c 7cbc 9cb4 f3bd
000000f0: d2bd 083f 9d87 0e3d 57b5 833c 7ce6 57be
00000100: 7472 b53c faea 1cbe e59c 643e 5172 cd3c
00000110: 7394 3e3b a272 bfbd fff5 f0bd 6b89 a33d
00000120: 5019 19be ad76 1f3e 8b6b 813e 0b42 5f3e
00000130: dbf7 b8bd fbdc 8cbe a62a 45be 565e da3d
00000140: d7b2 303d 92b9 9cbd 5c29 c8bd 1682 23be
00000150: fb74 3a3e c950 f73d 5647 5f3e 2fa0 273e
00000160: 87e2 263e d452 1f3d ee41 ac3c 6eab a53b
00000170: a157 edbd c596 63be 53ea 3dbc f2c3 383e
00000180: 3b42 0f3e 93c0 89be 5796 513e 1d72 d63d
00000190: b9ea 35be a9d0 bc3c 54e2 80bd 76c4 84be
000001a0: b2d6 88bd 90dc 913d a453 e23d a46a 453e
000001b0: 45a3 813d a169 eb3d f9dd e73b 8b71 143e
000001c0: 12aa 0c3e 6815 153e 3495 96bd dbd9 0c3e
000001d0: 9d97 33be 6931 7f3d cfa5 65bc e086 073e
000001e0: 2484 1e3e 4ee9 0ebe c365 3fbe b205 16be
000001f0: c021 6b3e eb8e d03d a61d 07be 8243 debc
00000200: b207 313e b466 9abe dd4e a63d 7d0d 993d
00000210: 3c6d 2b3d 21b5 3bbe af91 b43c 6d97 6dbd
00000220: 6ece 0ebe 784d df3d 313e 5f3e 6c3a 953d
00000230: 99f9 3cbd 6ad1 39be 83a3 1d3c fce3 343e
00000240: fd50 763e 101a 40be f8a0 8bbd b215 b5bc
00000250: 6243 9f3d 5a8b 753e 6912 023e f6e6 513e
00000260: aeb4 b33d aead 213e 2275 ae3d 517f 103e
00000270: 6f28 f6bb 9bc7 b7bd 7aa4 71bd 46ba 193e
00000280: 3940 9d3d 5e2b 9bbd b0a6 8c3d 01b9 303e
00000290: 5d4f 60be bfbf 3f3e b935 59be ae01 13be
000002a0: 7d3f f33c 2d38 723e 6f63 ff3b 3445 9bbc
000002b0: 609d a5bd e683 86bc 8e07 a83d a074 0c3e
000002c0: 2e6a 523d 3136 5f3e 56f9 e1bd 483d b83d
000002d0: 60da d43c 8216 063e 628d 4e3e be22 033e
000002e0: c98e 223e f387 87be c48a e3bd ca4d b83d
000002f0: 24a8 853e 3eb1 a13d b79a d73d fc34 8ebe
00000300: 1b90 4f3e 24ed 9cbc f703 153c cc51 653e
00000310: 8fab 42be 2221 b8bb 6d59 69bd 4e7f 263e
00000320: 597e 0ebe 6584 503e 9353 cb3b ae02 883d
00000330: 2fd5 f9bc b17b 3dbe c6e9 9fbc 50db a63d
00000340: b0a8 5c3e ef45 81be 5fdf f0bd e0af 1a3d
00000350: 3b5b d13d d20b 4c3c 2d15 273e c48a 513e
00000360: 5fdd e93d ca45 263e 1dbe 27be 81a6 003e
00000370: 9992 24be 2db7 0dbe 5389 8abd 6d54 eebc
00000380: c05a 0f3e dec9 fa3c 221a 07bd 47bf e7bb
00000390: d35c 043d af8e a7bd cd0b 84bd ad81 51bc
000003a0: fe8a fb3d a593 673e 5ad8 26bc 22c8 ca3c
000003b0: a8b9 373c 3caf c53c 2263 eb3c 645f 263e
000003c0: ac94 5d3c db48 1e3e e247 03bd 7c37 5b3e
000003d0: d28f f03d 1cb1 443e 2524 b03d 734a 173e
000003e0: 81ec d43d f2bc f1bd 6338 65bd 6e3c 1d3e
000003f0: bd42 f73d 40b8 3dbd a987 0ebd c3ca aebd

lstm.weight_hh_l1 f4 [256, 64]
0.10391773 -0.22350441 0.23094675 -0.01913544 0.081823036 -0.0075940574 0.12382129 -0.06613805
0.0964205 0.11901881 0.10758749 -0.13871343 0.014007089 -0.067343734 0.047919665 -0.033461735
-0.047054987 0.094284974 -0.11975709 0.014705906 -0.21473134 -0.016585391 -0.038031023 -0.24872532
-0.21868417 -0.0801615 0.08273677 0.059427083 0.045026626 0.19893667 -0.07372655 0.23917815
0.18402572 -0.09558309 -0.12817061 0.042819165 0.08820491 -0.0463376 0.13571124 -0.0042281863
-0.07862722 0.043400805 0.10964294 0.050331976 -0.1665199 0.006994103 0.12311156 -0.027185358
0.07897431 0.18880424 0.035020772 0.07232392 -0.18630928 0.03176098 0.0010646037 0.018065838
-0.16644874 -0.19295885 0.01697213 0.0878377 -0.038673334 -0.03802054 -0.058948267 -0.092533074
0.23192073 -0.14847769 0.05745733 0.086742304 0.21081045 0.052377734 0.020271301 -0.18150856
0.058844004 -0.18977629 0.15659104 0.009812356 -0.044477586 0.06222373 -0.13616735 -0.031668894
-0.011178699 -0.120482944 0.23501839 0.054244347 -0.065080374 -0.014336043 -0.05471692 0.033794954
0.010372985 0.03685918 0.08218572 0.12778436 -0.009442671 -0.0049843895 -0.055324197 0.020598117
-0.009968554 -0.057165235 0.009507947 0.15265463 0.1317531 0.13052975 0.08780161 -0.02729633
0.04305404 -0.07734081 0.084073275 -0.010092211 0.015997631 0.023961 -0.115492634 -0.16235873
0.06529043 0.12563947 -0.01956144 -0.08215183 -0.0791959 -0.09589808 0.1089865 0.07354166
0.053800777 -0.0004134031 -0.100549296 -0.020563552 -0.17538472 0.06302358 0.14288409 0.05390019
-0.0043404545 -0.09948727 -0.1343957 -0.053681206 0.082227424 0.23836845 0.096538775 -0.18751189
0.060297977 -0.099833384 -0.011247501 0.07326625 0.032376863 -0.013743712 -0.09283466 0.004576009
0.09854693 0.14262725 0.055824652 -0.2319966 -0.006564437 0.019471265 -0.03915135 0.092874736
-0.059324678 0.10366873 0.015446149 0.033334043 -0.0031921947 0.0295816 -0.09010013 0.0961191
0.15165715 0.16912495 0.07902381 0.082940094 0.17696984 -0.016224276 0.010247381 -0.049419466
0.13213582 -0.14661823 0.10792677 0.016401816 -0.14130107 0.111591466 0.087669976 0.06453234
-0.018789083 0.12340591 0.10728074 0.17511196 0.034022123 -0.004871029 -0.013356305 -0.07563794
-0.0007761124 0.05775381 0.05549709 0.012541917 0.018416883 0.08902329 -0.16791502 -0.067209326
-0.07564554 -0.14804226 -0.006405315 0.04185772 0.06904537 -0.040189803 -0.0014905152 0.10703285
0.06189749 0.096071444 0.019875193 -0.17824554 -0.02739555 0.05259805 0.03879058 -0.008406271
0.04093331 0.023306094 0.11465559 0.023797613 -0.065344654 0.13592911 0.013207546 0.07213172
-0.20962472 0.2031448 0.09093333 0.12243858 -0.029735295 0.09793334 0.008452781 0.06871606
-0.03494092 -0.09660352 -0.023374004 0.11781633 0.051306657 -0.013964034 -0.07964021 -0.15732808
0.06314316 -0.05637523 0.13991277 -0.058152087 -0.09343153 0.043337785 0.1583163 -0.104252495
0.08809537 0.052013513 0.09695732 0.0656551 -0.008657331 0.22316225 0.10133848 -0.019243399
-0.08266505 -0.19864051 0.11221141 0.022841653 0.03611399 0.04837822 -0.07735755 -0.2246695
00000000: d2d2 d43d 57de 64be 4e7d 6c3e edc1 9cbc
00000010: d692 a73d 92d7 f8bb 0496 fd3d 6373 87bd
00000020: 1c78 c53d 22c0 f33d d456 dc3d e50a 0ebe
00000030: fd7d 653c 83eb 89bd 6947 443d 2c0f 09bd
00000040: bbbc 40bd 7b18 c13d 3543 f5bd 0af1 703c
00000050: 88e2 5bbe 16de 87bc 6bc6 1bbd dab1 7ebe
00000060: beee 5fbe b62b a4bd e571 a93d d069 733d
00000070: d76d 383d 0eb6 4b3e f2fd 96bd 1eeb 743e
00000080: 3d71 3c3e 11c1 c3bd 283f 03be 2663 2f3d
00000090: c7a4 b43d 7fcc 3dbd e3f7 0a3e 998c 8abb
000000a0: 4f07 a1bd 0bc5 313d 7a8c e03d e728 4e3d
000000b0: 3184 2abe ca2e e53b ea21 fc3d d4b3 debc
000000c0: 48bd a13d e655 413e f171 0f3d 901e 943d
000000d0: dcc7 3ebe cd17 023d 2c8a 8b3a cffe 933c
000000e0: 8a71 2abe 0197 45be 2309 8b3c 41e4 b33d
000000f0: ee67 1ebd 6dbb 1bbd bd73 71bd fb81 bdbd
00000100: a17c 6d3e 890a 18be 6158 6b3d f3a5 b13d
00000110: b2de 573e 098a 563d 0010 a63c 61dd 39be
00000120: 6906 713d b754 42be 6759 203e 01c4 203c
00000130: 212e 36bd 4fde 7e3d 746f 0bbe 3eb7 01bd
00000140: dd26 37bc c3bf f6bd a9a8 703e 522f 5e3d
00000150: dc48 85bd b9e1 6abc d91e 60bd 946c 0a3d
00000160: 74f3 293c a7f9 163d fd50 a83d e7d9 023e
00000170: 6fb5 1abc 1754 a3bb a09b 62bd 62bd a83c
00000180: 2553 23bc 1826 6abd 38c7 1b3c 7f51 1c3e
00000190: 49ea 063e 97a9 053e 55d1 b33d 8e9c dfbc
000001a0: 6f59 303d dc64 9ebd 9c2e ac3d cd59 25bc
000001b0: 770d 833c dc49 c43c 6787 ecbd 5e41 26be
000001c0: fdb6 853d a2a7 003e 503f a0bc 383f a8bd
000001d0: 7631 a2bd 3666 c4bd 5034 df3d 039d 963d
000001e0: 345e 5c3d 06be d8b9 caec cdbd e574 a8bc
000001f0: 0d98 33be 8212 813d 3550 123e 72c6 5c3d
00000200: 5f3a 8ebb fbbf cbbd 079f 09be d3e0 5bbd
00000210: da66 a83d dc16 743e 1fb6 c53d 1e03 40be
00000220: 03fb 763d 7275 ccbd 7047 38bc 9e0c 963d
00000230: 9a9d 043d 4e2d 61bc 1920 bebd 59f2 953b
00000240: f9d2 c93d e10c 123e 64a8 643d 8490 6dbe
00000250: 7d1a d7bb 3482 9f3c 2a5d 20bd 1c35 be3d
00000260: 6ffe 72bd 4550 d43d d811 7d3c 4789 083d
00000270: 2434 51bb 1d55 f23c 6b86 b8bd 17da c43d
00000280: 034c 1b3e 172f 2d3e 3cd7 a13d 7fdc a93d
00000290: 9537 353e c6e8 84bc a2e4 273c 116c 4abd
000002a0: 9d4e 073e 1723 16be b608 dd3d 1a5d 863c
000002b0: 3ab1 10be 118a e43d 518c b33d 8829 843d
000002c0: 90eb 99bc 3dbc fc3d 01b6 db3d 8d50 333e
000002d0: c85a 0b3d 279d 9fbb 67d4 5abc 10e8 9abd
000002e0: 0674 4bba 428f 6c3d eb50 633d 9d7c 4d3c
000002f0: 01df 963c d851 b63d eaf1 2bbe 0ba5 89bd
00000300: 0dec 9abd 6498 17be ade3 d1bb 0073 2b3d
00000310: a967 8d3d 109e 24bd 645d c3ba 0a34 db3d
00000320: 3988 7d3d 1bc1 c43d 4dd1 a23c 0086 36be
00000330: a26c e0bc 0e71 573d dfe2 1e3d 75ba 09bc
00000340: b0a9 273d 6cec be3c 8dd0 ea3d 36f3 c23c
00000350: 6bd3 85bd 0031 0b3e 7764 583c ccb9 933d
00000360: dda7 56be 3105 503e 413b ba3d 14c1 fa3d
00000370: 6f97 f3bc 4691 c83d 887d 0a3c 01bb 8c3d
00000380: 361e 0fbd 11d8 c5bd d77a bfbc b049 f13d
00000390: ee26 523d 67c9 64bc 681a a3bd 9d1a 21be
000003a0: 3351 813d b7e9 66bd 4b45 0f3e e230 6ebd
000003b0: 0859 bfbd f682 313d ab1d 223e 5582 d5bd
000003c0: 586b b43d 1f0c 553d 8f91 c63d 2e76 863d
000003d0: 7ad7 0dbc a584 643e 8d8a cf3d 55a4 9dbc
000003e0: 4b4c a9bd 6b68 4bbe 19cf e53d 6b1e bb3c
000003f0: 43ec 133d 3e28 463d a36d 9ebd c30f 66be

lstm.bias_ih_l1 f4 [256]
0.32973948 0.26458496 0.05303595 0.27466574 0.012682933 0.12024801 0.45947263 0.0421328
0.23228648 0.3054877 0.2897796 0.22695717 0.31119552 0.27177146 0.07180345 0.15219407
0.024803687 0.27056494 0.08891769 0.25339603 0.3028275 0.01675243 0.3757076 0.28147927
0.02654404 0.23927224 0.16917685 0.1481417 0.096382014 0.24608225 0.1740944 0.1565177
0.21670946 0.31327212 0.36584923 0.28785604 0.15320489 0.027469644 0.12263401 0.34416357
0.25612935 0.39430183 0.19006419 0.24509884 0.02730325 0.22082065 0.20691916 0.16830328
0.108052045 0.26893017 0.21886583 0.24953584 0.091331586 0.1647263 0.1461134 0.16754343
0.277427 0.034887783 0.10194504 0.090581805 0.039337367 0.19103716 0.27031022 0.051558383
-0.117725745 -0.14646438 -0.02146882 0.06788413 0.067912 0.08308182 -0.03580915 0.04510309
0.04949475 0.17272326 -0.04899755 0.1485571 -0.14937614 0.00699619 0.0613842 0.09742715
-0.085691385 -0.2274101 0.051583152 -0.0452126 -0.055547256 0.029300267 0.03893225 0.051744673
0.00819969 -0.064747445 -0.09812245 0.011533668 -0.03327772 0.027878612 0.11637683 -0.06654633
0.013451667 0.014617678 0.060901754 -0.06612508 -0.07508577 -0.07310117 0.008621157 -0.020875972
-0.053054336 -0.10918664 0.0469247 -0.022915991 0.15234964 -0.27166197 0.10441822 -0.1267799
-0.121493995 0.09386345 0.08890705 0.06491119 0.02549496 0.036427118 0.068190485 0.075783364
0.08191867 0.036320914 0.0031898005 0.13713014 0.073896065 0.17496417 -0.19706514 0.0073336037
-0.084664375 -0.042989586 0.019251259 0.07916997 -0.06575304 0.028691601 0.056658756 -0.03732505
0.030435303 0.019654406 -0.012084226 -0.054467857 0.03777464 -0.1330998 -0.00165271 -0.09211036
0.004451844 0.02595208 -0.010229362 -0.029204473 0.040904496 0.08097998 -0.18862113 -0.10725913
-0.03910533 0.117597766 0.08785489 0.09773391 0.040430613 0.15021916 -0.070177995 0.16807017
0.07815919 -0.033691395 -0.112844594 0.11374705 -0.10187811 0.05391453 0.08771546 -0.16798854
0.040520288 -0.07143951 -0.0003066947 0.0015540903 -0.06498531 -0.047275122 0.059563637 -0.052515272
-0.041203823 0.14506458 0.06656186 0.07780405 -0.13326299 0.16116425 -0.091681406 -0.0050727855
-0.12729959 -0.0473686 0.08784975 0.13800175 -0.14641851 0.09234201 0.05640053 -0.18902373
0.5392467 0.036884498 0.08326833 0.13327532 0.1172784 0.04260445 0.15987605 0.10126684
0.12544815 0.3041523 0.3678564 0.20988138 0.2530391 0.15460128 0.06982102 0.112529516
0.10948251 0.16746485 0.12706861 0.15954743 0.19011115 0.06753179 0.3255178 0.22232449
0.28206995 0.32455128 0.21010982 0.08034003 0.2135811 0.23420733 0.065709546 0.22772531
0.108486295 0.2706157 0.08886047 0.15256375 0.06284902 0.28603962 0.08530568 0.3311041
0.15352765 0.20025621 0.010627999 0.122668624 0.061514992 0.26346907 0.15864962 0.116363235
0.26085243 0.20437722 0.14637302 0.06140956 0.097403266 0.08230258 0.19903389 0.18409994
0.36302924 0.022764033 0.29035193 0.08703032 0.085504554 0.13313368 0.18150383 0.14342014
00000000: 9dd3 a83e ae77 873e 393c 593d fda0 8c3e
00000010: 14cc 4f3c 9744 f63d ff3f eb3e 7193 2c3d
00000020: 82dc 6d3e e268 9c3e fe5d 943e 7667 683e
00000030: 0555 9f3e a125 8b3e b00d 933d c3d8 1b3e
00000040: 1a31 cb3c 7d87 8a3e 7a1a b63d 20bd 813e
00000050: 350c 9b3e 643c 893c bf5c c03e 0d1e 903e
00000060: e372 d93c c803 753e b23c 2d3e 75b2 173e
00000070: ef63 c53d fcfc 7b3e cd45 323e 2d46 203e
00000080: 16e9 5d3e 3465 a03e 9750 bb3e de61 933e
00000090: bee1 1c3e 0508 e13c 8a27 fb3d 3536 b03e
000000a0: 6323 833e eee1 c93e 30a0 423e 31fb 7a3e
000000b0: 11ab df3c cf1e 623e 9ee2 533e b257 2c3e
000000c0: 644a dd3d 37b1 893e 5d1e 603e 5386 7f3e
000000d0: 0e0c bb3d 03ae 283e c09e 153e 8190 2b3e
000000e0: e90a 8e3e 7ee6 0e3d 90c8 d03d f482 b93d
000000f0: 3820 213d 3f9f 433e 1a66 8a3e e22e 533d
00000100: 321a f1bd c2fa 15be 61df afbc d606 8b3d
00000110: 7215 8b3d cd26 aa3d 9eac 12bd 05be 383d
00000120: 02bb 4a3d 5ede 303e a8b1 48bd 5a1f 183e
00000130: 0ff6 18be 4c40 e53b 006e 7b3d e387 c73d
00000140: f77e afbd 31de 68be db48 533d d930 39bd
00000150: 8585 63bd 1d07 f03c 6c77 1f3d 39f2 533d
00000160: fe57 063c 4f9a 84bd 6cf4 c8bd b6f7 3c3c
00000170: 384e 08bd b061 e43c fa56 ee3d 7149 88bd
00000180: 6164 5c3c fc7e 6f3c 1e74 793d 966c 87bd
00000190: 91c6 99bd 11b6 95bd c13f 0d3c 1604 abbc
000001a0: 814f 59bd 3f9d dfbd 1d34 403d 51ba bbbc
000001b0: 8b01 1c3e 4717 8bbe 38d9 d53d 97d2 01be
000001c0: d8d1 f8bd 7b3b c03d e614 b63d 28f0 843d
000001d0: ceda d03c 9a34 153d 74a7 8b3d 4f34 9b3d
000001e0: fac4 a73d 3dc5 143d f90b 513b d86b 0c3e
000001f0: d256 973d cf29 333e 72cb 49be ba4e f03b
00000200: 8464 adbd d915 30bd d1b4 9d3c dd23 a23d
00000210: 88a9 86bd a60a eb3c 0313 683d 27e2 18bd
00000220: 7553 f93c 4702 a13c ebfc 45bc b019 5fbd
00000230: 95b9 1a3d 504b 08be bf9f d8ba 5ba4 bcbd
00000240: c6e0 913b 7599 d43c 0e99 27bc 383e efbc
00000250: 798b 273d d5d8 a53d e625 41be adaa dbbd
00000260: e92c 20bd 19d7 f03d 44ed b33d b728 c83d
00000270: 929a 253d 0dd3 193e 7bb9 8fbd 961a 2c3e
00000280: ed11 a03d fdff 09bd 111b e7bd 37f4 e83d
00000290: 78a5 d0bd 7bd5 5c3d 2aa4 b33d 3005 2cbe
000002a0: 9af8 253d e14e 92bd decb a0b9 9eb2 cb3a
000002b0: 0517 85bd 8fa3 41bd 00f9 733d 411a 57bd
000002c0: 57c5 28bd cf8b 143e 9651 883d bb57 9f3d
000002d0: 1876 08be 3e08 253e 76c3 bbbd 9c39 a6bb
000002e0: d35a 02be 9405 42bd 92ea b33d 5550 0d3e
000002f0: bcee 15be cf1d bd3d 3e04 673d 708f 41be
00000300: 120c 0a3f 3314 173d 9688 aa3d 5379 083e
00000310: a82f f03d 0182 2e3d 8cb6 233e fd64 cf3d
00000320: 7b75 003e dab9 9b3e ad57 bc3e 25eb 563e
00000330: 578e 813e cc4f 1e3e 53fe 8e3d e075 e63d
00000340: 5e38 e03d e87b 2b3e 461e 023e 6760 233e
00000350: 7fac 423e 1b4e 8a3d 45aa a63e 08a9 633e
00000360: 796b 903e 962b a63e 0727 573e 5089 a43d
00000370: 01b5 5a3e 0cd4 6f3e ba92 863d d330 693e
00000380: 102e de3d 248e 8a3e 7afc b53d ac39 1c3e
00000390: fdb6 803d c973 923e bfb4 ae3d 7a86 a93e
000003a0: 5a36 1d3e f70f 4d3e 0f21 2e3c b039 fb3d
000003b0: 25f7 7b3d 6be5 863e 0c75 223e d94f ee3d
000003c0: 738e 853e 4348 513e cfe2 153e 9788 7b3d
000003d0: 5d7b c73d 418e a83d 8acf 4b3e b284 3c3e
000003e0: f8de b93e a37b ba3c 02a9 943e f43c b23d
000003f0: 031d af3d 3254 083e 24dc 393e bbdc 123e

lstm.bias_hh_l1 f4 [256]
0.44038534 0.050550234 0.24954602 0.11882825 0.1875483 0.14358583 0.54946864 0.0007345944
0.17562275 0.41071782 0.29673648 0.15926829 0.07174326 0.35303602 0.03816964 0.122039005
0.09107407 0.100490086 0.21354175 0.20517834 0.2604952 0.1688974 0.45709595 0.1416413
0.044763207 0.23805389 0.085859545 0.08014331 0.032491874 0.16482954 0.16187471 0.19752835
0.13812599 0.22792087 0.5054499 0.2759546 -0.026126511 0.16921861 0.09049295 0.33202532
0.3118574 0.3497905 0.09869762 0.18157437 0.20472977 0.22574969 0.2943471 0.01637795
0.17354427 0.21921813 0.081309415 0.060601998 0.12671278 0.17000137 0.2533403 0.13446268
0.27045652 0.04237931 0.18417008 0.15910786 0.01133761 0.16981988 0.30628297 0.12423714
0.00096158456 -0.1840398 -0.1481903 0.15558673 0.014421794 -0.107270785 0.1821267 0.13174343
0.2041893 0.0422392 -0.10997358 0.1836898 -0.13319694 0.02896956 0.09225923 0.031579234
-0.07173901 -0.12790962 -0.07221964 -0.12518856 -0.023178656 0.08717229 0.037213475 0.18945451
0.1302408 -0.08638495 -0.017360415 0.18442073 0.10703219 0.09677205 -0.04388445 -0.0856761
-0.024092386 0.013574768 0.08737646 0.036918044 -0.03704492 -0.16024041 -0.06582289 -0.20152245
0.11138304 -0.21831952 0.058842476 0.0885501 0.16748512 -0.11789288 -0.08102765 0.026989477
-0.062795624 0.0034788114 0.15479648 0.048028134 0.17710952 0.03846143 0.026976462 -0.006043223
0.020749591 0.08302764 -0.024715163 0.015843064 -0.069318876 0.13503917 0.03145075 0.11891223
-0.028026337 0.04391874 0.04690619 0.042915996 -0.08704543 0.12694132 0.123537 -0.06725474
-0.00053708244 0.12806931 0.004456756 -0.12891553 0.003129533 -0.08011401 0.01696399 -0.057343464
0.059659373 0.07735006 -0.03648488 -0.03580375 -0.13546528 0.13827701 -0.04716561 -0.1532084
-0.06999455 -0.02252925 0.14750047 0.077669285 -0.105534494 0.25112534 -0.02653311 -0.013814921
0.12277008 -0.09600297 -0.031135475 0.16480683 -0.08844114 0.016619565 -0.003991979 -0.10169412
-0.14100298 -0.07821405 -0.006474781 0.08284683 -0.1599377 0.10680351 -0.023479816 0.03189205
-0.021290377 0.25122 0.023755006 0.13601051 -0.12503873 0.16889034 0.060998656 -0.10912759
-0.05433233 -0.15867938 0.10394187 0.014162764 -0.13121104 0.02411003 -0.07801914 -0.18796058
0.49191368 0.2661306 0.19227105 0.18276721 0.19232619 0.20374466 0.15219525 0.10543329
0.27710083 0.24346203 0.40139744 0.05404828 0.15356211 0.12254121 0.09703647 0.22140448
0.0075976304 0.33085212 0.27330327 0.15228656 0.08578159 -0.0171528 0.12964277 0.1207054
0.22325456 0.27209294 0.10263718 0.042556863 0.20290706 0.27265257 -0.003311395 0.10389016
0.19486025 0.33338153 0.08863405 0.1021075 -0.041249964 0.26968768 0.16698109 0.3204788
0.21873353 0.09275846 0.09554894 0.26373526 0.027478041 0.10514102 0.15504843 0.15302743
0.19243528 0.08354155 0.1195184 0.14091747 0.13952453 0.14293468 0.09545764 0.19017363
0.21463318 -0.012143772 0.21654096 0.18425287 0.19682488 0.07867955 0.18713272 -0.0047373
00000000: 307a e13e c30d 4f3d fe88 7f3e 3a5c f33d
00000010: a90c 403e 2a08 133e faa9 0c3f cc91 403a
00000020: 73d6 333e 9b49 d23e d8ed 973e 3a17 233e
00000030: 21ee 923d 23c1 b43e c557 1c3d 96ef f93d
00000040: 0b85 ba3d bfcd cd3d b0aa 5a3e 451a 523e
00000050: a05f 853e 71f3 2c3e 7b08 ea3e 6b0a 113e
00000060: a059 373d 66c4 733e 21d7 af3d 2d22 a43d
00000070: 3316 053d 13c9 283e 7cc2 253e df44 4a3e
00000080: e670 0d3e 1764 693e 2a65 013f ec49 8d3e
00000090: 4407 d6bc a547 2d3e 5e54 b93d 39ff a93e
000000a0: c6ab 9f3e be17 b33e fa21 ca3d a2ee 393e
000000b0: aea4 513e ed2a 673e aab4 963e 0d2b 863c
000000c0: 97b5 313e b87a 603e 8d85 a63d cd39 783d
000000d0: ffc0 013e d714 2e3e d2b5 813e 96b0 093e
000000e0: 4779 8a3e ed95 2d3d 1597 3c3e 2ced 223e
000000f0: 62c1 393c 43e5 2d3e 1fd1 9c3e 0b70 fe3d
00000100: d912 7c3a ee74 3cbe 33bf 17be 2152 1f3e
00000110: 6349 6c3c c9b0 dbbd 6c7f 3a3e c0e7 063e
00000120: 0017 513e 0303 2d3d d439 e1bd 2e19 3c3e
00000130: c764 08be 9251 ed3c 68f2 bc3d 3a59 013d
00000140: e7eb 92bd bdfa 02be e4e7 93bd 6e31 00be
00000150: 2ae1 bdbc 6387 b23d 286d 183d 5d00 423e
00000160: d85d 053e 98ea b0bd 6e37 8ebc cad8 3c3e
00000170: b133 db3d 6d30 c63d 2ec0 33bd f376 afbd
00000180: 655d c5bc b468 5e3c 6ef2 b23d 6037 173d
00000190: 6abc 17bd 1016 24be 27ce 86bd e75b 4ebe
000001a0: cb1c e43d 278f 5fbe cf04 713d c159 b53d
000001b0: 3881 2b3e d371 f1bd d3f1 a5bd 0919 dd3c
000001c0: fe9a 80bd c5fc 633b f882 1e3e 26b9 443d
000001d0: 335c 353e bc89 1d3d befd dc3c 3b06 c6bb
000001e0: 0cfb a93c 650a aa3d 7477 cabc 50c9 813c
000001f0: 0ef7 8dbd b547 0a3e 80d2 003d 4188 f33d
00000200: 7d97 e5bc 23e4 333d b520 403d afc8 2f3d
00000210: e044 b2bd e8fc 013e f700 fd3d dabc 89bd
00000220: feca 0cba 9a24 033e fb09 923b 6f02 04be
00000230: da18 4d3b d012 a4bd 11f8 8a3c fbe0 6abd
00000240: 635d 743d b569 9e3d 2b71 15bd f4a6 12bd
00000250: 69b7 0abe 7d98 0d3e ba30 41bd aae2 1cbe
00000260: 4d59 8fbd 438f b8bc 5d0a 173e 1311 9f3d
00000270: 7822 d8bd 8093 803e f75b d9bc fa57 62bc
00000280: e16e fb3d 359d c4bd d30f ffbc 1fc3 283e
00000290: a120 b5bd c125 883c 26cf 82bb 0245 d0bd
000002a0: 1663 10be b02e a0bd 662a d4bb 99ab a93d
000002b0: b5c6 23be ccbb da3d be58 c0bc 3da1 023d
000002c0: 2869 aebc e89f 803e dc99 c23c 5746 0b3e
000002d0: 270a 00be 97f1 2c3e bad9 793d 497e dfbd
000002e0: 948b 5ebd d97c 22be 7adf d43d f00a 683c
000002f0: 305c 06be 6682 c53c 80c8 9fbd bd78 40be
00000300: 1cdc fb3e 4542 883e b4e2 443e 5427 3b3e
00000310: 28f1 443e 71a2 503e 12d9 1b3e 69ed d73d
00000320: 29e0 8d3e 1c4e 793e f783 cd3e bb61 5d3d
00000330: 633f 1d3e e3f6 fa3d 0fbb c63d dbb7 623e
00000340: 8bf5 f83b 7365 a93e 68ee 8b3e 02f1 1b3e
00000350: 42ae af3d 0784 8cbc 13c1 043e 6534 f73d
00000360: d89c 643e c44f 8b3e 7133 d23d 1b50 2e3d
00000370: dec6 4f3e 1e99 8b3e fd03 59bb 5dc4 d43d
00000380: 7289 473e fcb0 aa3e c585 b53d bd1d d13d
00000390: b9f5 28bd 8114 8a3e 17fd 2a3e cc15 a43e
000003a0: affb 5f3e 26f8 bd3d 2aaf c33d 4f08 873e
000003b0: a119 e13c 2d54 d73d 04c5 1e3e 39b3 1c3e
000003c0: c10d 453e d517 ab3d 10c6 f43d ab4c 103e
000003d0: 85df 0e3e 785d 123e 4c7f c33d e0bc 423e
000003e0: cdc8 5b3e acf6 46bc eabc 5d3e c9ac 3c3e
000003f0: 768c 493e be22 a13d b89f 3f3e 5a3b 9bbb
